model/ckpt/learned_litho_model_pbl3d.pt (torch, 339234 bytes, 19 tensors)

thresh_approx.conv0.weight f4 [128, 1, 1, 1]
0	0xbf0d0bc4	-0.5509608
1	0x3f34a5bb	0.70565385
2	0x3e982ea0	0.29723072
3	0xbf578771	-0.8419104
4	0xbf789aa6	-0.97110975
5	0xbf159e03	-0.5844423
6	0x3f4bc5fe	0.7959899
7	0xbf11b3de	-0.5691508
8	0x3ec098ff	0.37616727
9	0x3ea64615	0.32475343
10	0xbd3a0185	-0.045411605
11	0xbf3e7e2f	-0.7441129
12	0xbe42fe38	-0.1904229
13	0xbf27d25c	-0.6555536
14	0x3f49bb5c	0.7880151
15	0x3f28b292	0.65897477
16	0x3eb233cf	0.34805152
17	0xbf4ae0c6	-0.7924923
18	0x3f31791f	0.6932544
19	0x3ecf9b50	0.40548182
20	0x3d6e7b7d	0.058223236
21	0xbf024691	-0.50888926
22	0xbe4b1ea2	-0.19835904
23	0xbf4bf8b1	-0.7967635
24	0x3eee87f8	0.4658811
25	0xbe1000ca	-0.14062801
26	0xbec6018f	-0.38673064
27	0x3f52eb21	0.8239003
28	0x3e46bd23	0.19408087
29	0x3f747f07	0.9550633
30	0xbf6f3718	-0.9344344
31	0xbf3d2fa6	-0.7390083
32	0x3f74b5da	0.95589983
33	0xbf72a473	-0.9478218
34	0x3f63835a	0.888723
35	0x3ef12e99	0.47105864
36	0xbd2670a9	-0.040634785
37	0xbf50eba7	-0.81609577
38	0xbe65d63b	-0.22445004
39	0x3f1c72ec	0.61112857
40	0xbe6eeff2	-0.2333372
41	0xbf372edf	-0.71555895
42	0xbefaae29	-0.48961
43	0x3f359e6d	0.70944864
44	0xbf0ab89d	-0.5418795
45	0x3f734d58	0.9503989
46	0x3f128a87	0.57242626
47	0x3e21a7b5	0.15786631
48	0x3f32b25e	0.69803417
49	0xbc1dfa9f	-0.009642272
50	0xbf388450	-0.7207689
51	0x3f586892	0.8453456
52	0x3e47520d	0.19464894
53	0xbf36eb49	-0.71452767
54	0x3f345117	0.70436233
55	0xbdff192f	-0.12455975
56	0xbf6aed80	-0.91768646
57	0x3f1520c7	0.5825314
58	0x3f01e39c	0.5073793
59	0xbe3c60ae	-0.18396255
60	0x3e0510c5	0.12994678
61	0x3f1ac88d	0.60462266
62	0xbea66f93	-0.32507
63	0x3f6067c8	0.8765836
64	0xbf3c36ff	-0.7352142
65	0x3f0df6b9	0.55454594
66	0x3eef92a9	0.4679158
67	0xbf728c06	-0.9474491
68	0x3eccd57c	0.40006626
69	0x3f132167	0.5747284
70	0x3e41db0b	0.18931215
71	0xbf78f58d	-0.9724968
72	0x3f655e89	0.89597374
73	0x3f440b5b	0.7657983
74	0x3f4d3954	0.801656
75	0xbf0a7186	-0.54079473
76	0xbe7bbb23	-0.24583106
77	0xbf2820a6	-0.6567482
78	0x3f009b7d	0.50237256
79	0x3f594d63	0.8488371
80	0xbe85d47f	-0.26138684
81	0x3f04ed37	0.5192446
82	0xbf32f096	-0.69898355
83	0x3f6e0029	0.92968994
84	0xbf5d9596	-0.86556375
85	0xbf31aae9	-0.69401413
86	0xbf561d7e	-0.8363875
87	0xbcc2f335	-0.02379761
88	0xbef7e32b	-0.48415503
89	0xbc7249c1	-0.014788092
90	0x3f700e9b	0.93772286
91	0xbf34b63c	-0.7059057
92	0x3c15ddde	0.009147136
93	0x3ecb8447	0.39749357
94	0xbeacf5e0	-0.33781338
95	0xbf20927e	-0.6272353
96	0xbeb6ad06	-0.3567888
97	0x3f1335b4	0.5750382
98	0x3dd44a8c	0.10365781
99	0x3f11d04b	0.56958455
100	0x3f76307f	0.9616775
101	0x3f026da6	0.5094856
102	0xbf02da0c	-0.51113963
103	0xbf50f05a	-0.8161675
104	0xbe57ec35	-0.210862
105	0xbda04cf6	-0.07827179
106	0xbf329ce2	-0.69770634
107	0xbf6446da	-0.8917061
108	0x3f2e9935	0.68202525
109	0xbefa6acb	-0.48909602
110	0xbe8d1fab	-0.27563223
111	0xbc19e8d7	-0.009393892
112	0xbf2c9ea1	-0.6742955
113	0xbf24756d	-0.6424168
114	0xbf4867d7	-0.7828345
115	0xbed9241c	-0.42410362
116	0xbf3eab79	-0.74480397
117	0x3d8040d5	0.06262366
118	0xbe7401e9	-0.23828854
119	0xbf51d2dd	-0.81962377
120	0x3f5632e5	0.8367141
121	0xbea8f74b	-0.3300117
122	0x3f64f130	0.8943052
123	0x3f3804e8	0.71882486
124	0x3f35ba76	0.7098764
125	0x3f63de55	0.89011127
126	0x3f3f3764	0.74693894
127	0x3f2a78ea	0.6659075

thresh_approx.conv0.bias f4 [128]
0	0xbe3935b3	-0.18086891
1	0x3e5de93e	0.21671006
2	0x3f218887	0.6309895
3	0xbd99a127	-0.075014405
4	0x3e8be466	0.27322692
5	0xbf688e79	-0.90842396
6	0x3f252a52	0.645177
7	0xbe8a14dd	-0.26969042
8	0x3f2055fe	0.62631214
9	0x3e2e140a	0.16999832
10	0xbc166b3d	-0.009180841
11	0xbe4feca1	-0.2030511
12	0xbf3a1d2b	-0.72700757
13	0xbe979c7e	-0.29611582
14	0xbe8cff19	-0.27538374
15	0xbf5468f4	-0.82972646
16	0xbf6bb508	-0.92073107
17	0x3da0ed0d	0.07857714
18	0xbed97613	-0.42472896
19	0xbf5f11e0	-0.8713665
20	0xbeb77f1f	-0.35839173
21	0x3ea3cc52	0.31991822
22	0xbec6b796	-0.3881194
23	0x3f19c413	0.6006481
24	0x3ef5069a	0.478566
25	0x3f7d3346	0.9890636
26	0xbf688552	-0.9082843
27	0xbee34fc3	-0.4439679
28	0xbf4e4af7	-0.8058314
29	0x3f255669	0.64584976
30	0xbe866c7c	-0.26254642
31	0x3ebff949	0.37494877
32	0x3d94ec4b	0.07271632
33	0x3f043b39	0.51652867
34	0x3f1fbc1e	0.6239642
35	0xbe3e748c	-0.18599147
36	0xbf25866a	-0.64658225
37	0x3f6037ee	0.8758534
38	0x3f6d8cf3	0.92793196
39	0xbeffebd3	-0.49984607
40	0x3f577e70	0.84177303
41	0xbe2517d6	-0.16122374
42	0xbe4e34b7	-0.20137297
43	0xbf4659f0	-0.77480984
44	0x3f5d9260	0.86551476
45	0xbeb3b886	-0.35101718
46	0x3dfe848a	0.124276236
47	0xbda640a5	-0.08117799
48	0x3ea8c6a6	0.32964057
49	0x3ea86d4b	0.32895884
50	0xbf3b2cde	-0.73115337
51	0xbe234d4f	-0.1594746
52	0x3dac835c	0.08423492
53	0xbeeee3a8	-0.46658063
54	0xbf6c5acd	-0.9232605
55	0xbe1db4ef	-0.15401052
56	0x3eecae39	0.4622667
57	0x3f35239d	0.70757467
58	0xbed3b3fd	-0.41348258
59	0xbf6e1c7e	-0.93012226
60	0xbd1e0223	-0.038576256
61	0x3f69cf27	0.91331714
62	0xbf636bc4	-0.8883631
63	0x3f33417f	0.70021814
64	0x3f51e4be	0.8198966
65	0xbf523031	-0.82104784
66	0xbdb2e32a	-0.08734734
67	0xbf336618	-0.7007766
68	0xbde5b889	-0.11216838
69	0x3ebb7fe8	0.36621022
70	0xbea79c64	-0.32736504
71	0xbf067a3b	-0.5253026
72	0xbeb3705f	-0.3504667
73	0x3b38f460	0.002822183
74	0xbe9d41cb	-0.3071426
75	0xbf74a5a7	-0.95565265
76	0xbf4a3ebd	-0.7900198
77	0x3f231a3f	0.63711923
78	0x3eda023e	0.42579836
79	0x3e4431b1	0.19159581
80	0xbf6e79a7	-0.93154377
81	0x3e1e3c59	0.15452708
82	0x3eae6e3b	0.34068474
83	0x3f2389ca	0.63882124
84	0xbe5f0fae	-0.21783325
85	0x3f745f4d	0.9545792
86	0xbf1ac4a8	-0.60456324
87	0x3f639377	0.8889689
88	0x3f39249b	0.7232148
89	0x3ecbe00f	0.3981938
90	0x3f5d3f56	0.8642477
91	0x3ed616fb	0.41814408
92	0xbe2fc0d3	-0.171634
93	0x3eb50e55	0.35362497
94	0x3d81e6b4	0.06342831
95	0xbe8e99ce	-0.2785172
96	0x3ef7c08e	0.48389095
97	0x3f56f8e6	0.8397354
98	0xbef1622f	-0.4714522
99	0x3db57f2b	0.08862146
100	0xbd9b02f9	-0.07568926
101	0xbf07ae88	-0.5300069
102	0xbf3d051e	-0.73835933
103	0x3f3f9a07	0.748444
104	0x3dac0ec8	0.08401257
105	0x3e354ac4	0.17704302
106	0xbf13d628	-0.5774865
107	0xbe81723c	-0.25282466
108	0xbd3367d5	-0.043800194
109	0xbf3daaae	-0.7408856
110	0x3ee5d66b	0.4489015
111	0x3f019195	0.50612766
112	0xbf6655d0	-0.8997469
113	0xbf09d038	-0.5383334
114	0x3f78be0a	0.97164977
115	0x3ece0fd6	0.40246457
116	0x3e9868fc	0.29767597
117	0xbf5109ed	-0.8165577
118	0xbde23200	-0.11044693
119	0xbee959be	-0.4557628
120	0xbd6b4421	-0.05743802
121	0xbec1b612	-0.3783422
122	0x3f0c7868	0.54871225
123	0x3f76022d	0.9609707
124	0xbee54063	-0.44775686
125	0xbeaf71ea	-0.34266597
126	0x3e17ede0	0.14836836
127	0x3f334f6d	0.7004307

thresh_approx.conv1.weight f4 [64, 128, 1, 1]
0	0x3d0af595	0.03392561
1	0x3daf6303	0.08563807
2	0xbc7c91fa	-0.015415663
3	0xbcba3676	-0.022731047
4	0xbdbc9b71	-0.092093356
5	0x3cc477cb	0.023982903
6	0x3db76d4d	0.08956394
7	0xbc42fc37	-0.011900953
8	0x3cc79244	0.024361737
9	0x3d514a76	0.051096402
10	0xbd3b716c	-0.045762464
11	0xbcbbda82	-0.022931341
12	0xbdabc64d	-0.08387432
13	0x3cb71b8c	0.022352003
14	0xbd1989d0	-0.037484944
15	0x3d66f416	0.056385122
16	0xbd16f870	-0.036858022
17	0xbd8a3395	-0.0674812
18	0x3e12b848	0.1432811
19	0x3cd82df0	0.026389092
20	0xbb130de7	-0.0022438706
21	0xbe0c0728	-0.13674605
22	0x3ca6cbb1	0.0203608
23	0xbdcde07c	-0.100525826
24	0x3c7a95d7	0.015294514
25	0xbd90d88d	-0.07072554
26	0xbd19ca95	-0.037546713
27	0x3e007c82	0.12547496
28	0x3d87d4c4	0.06632379
29	0xbd8235c8	-0.06357914
30	0x3d8534fb	0.06504246
31	0xbdd51301	-0.10404015
32	0x3bf12bee	0.007359973
33	0xbe560a41	-0.20902349
34	0x3da85e47	0.08221107
35	0xbce4ab16	-0.027913611
36	0xbd4f8c84	-0.050671116
37	0xbd646b1d	-0.055766214
38	0x3c15c36c	0.0091408305
39	0x3da12b4d	0.07869587
40	0x3d8a434f	0.06751119
41	0xbd7b6fdf	-0.061385985
42	0xbbb1d5b3	-0.0054270863
43	0x3dd2483c	0.10267684
44	0xbbcfb886	-0.0063391356
45	0x3de68b88	0.11257082
46	0x3dae4918	0.08510035
47	0x3e17b6c9	0.14815821
48	0x3d8e630e	0.06952487
49	0x3d539718	0.051657766
50	0xbd961e9f	-0.07330059
51	0x3c04b988	0.008100875
52	0xbd514c22	-0.051097997
53	0xbb5b69ad	-0.0033479736
54	0xbd90c29b	-0.07068368
55	0xbd29562e	-0.041341953
56	0xbbbdb397	-0.005789231
57	0x3d82758c	0.063700765
58	0xbc02cea6	-0.007983839
59	0xbc99f396	-0.018792909
60	0x3d5847fc	0.052803025
61	0xbcf48287	-0.029847397
62	0x3d98dfd5	0.074645676
63	0xbd42704a	-0.04747037
64	0xbcea3e43	-0.028594142
65	0xbd27c558	-0.040959686
66	0x3d2a5dd6	0.041593395
67	0x3cc84c4c	0.024450444
68	0x3da3b518	0.07993525
69	0xbd97331e	-0.07382797
70	0xbbb3dd62	-0.0054890374
71	0xbd19a003	-0.037506115
72	0x3d76cca0	0.06025374
73	0xbd58ca60	-0.052927375
74	0xbca2780a	-0.01983263
75	0x3b8a2618	0.004215967
76	0x3d2f3a99	0.042780492
77	0xbd9c37cc	-0.0762783
78	0x3c5f765a	0.013639057
79	0x3d23453d	0.039860953
80	0x3d42bc77	0.047543015
81	0xbd925b27	-0.07146292
82	0xbb325a52	-0.002721448
83	0x3d3c8a84	0.046030536
84	0x3ac0cf3a	0.0014710196
85	0xbc909de1	-0.017653408
86	0x3d1c4d30	0.03815955
87	0xbd996fa2	-0.074919954
88	0x3d90b964	0.070666105
89	0xbd8e1899	-0.069382854
90	0x3d246572	0.04013581
91	0xbd337a18	-0.04381761
92	0xbc8bd0c7	-0.017067326
93	0xbd6f5069	-0.058426294
94	0x3d254365	0.040347476
95	0xbdbc4cf7	-0.091943674
96	0xbcc08646	-0.023501527
97	0xbd4c4aba	-0.049875952
98	0x3d1ab952	0.03777439
99	0xbd287456	-0.04112657
100	0x3b82e6b4	0.003994787
101	0xbd631aab	-0.055445354
102	0xbd6354ec	-0.05550091
103	0x3d230690	0.03980118
104	0xbd77dbec	-0.06051247
105	0xbd368e1e	-0.044569127
106	0x3d87520f	0.06607448
107	0xbd4e8329	-0.050418053
108	0x3d184c36	0.037182055
109	0x3c6957b7	0.014242104
110	0xbdad28d4	-0.08455053
111	0x3d067d97	0.032834616
112	0xbd9898d0	-0.07451022
113	0xbcbd8085	-0.023132572
114	0x3ba25d23	0.0049549504
115	0xbcd40be0	-0.025884569
116	0xbd6484ad	-0.055790592
117	0xbd598f66	-0.05311527
118	0xbc7c9189	-0.015415558
119	0x3da300ed	0.07959161
120	0x3b827679	0.003981408
121	0x3d987b1f	0.074453585
122	0x3d19ba9f	0.03753149
123	0xbbf5c50b	-0.007500296
124	0x3e3a609b	0.18200915
125	0x3d6fcf50	0.058547318
126	0xbcefab95	-0.029256621
127	0xbd71770b	-0.05895142
128	0xba5ab560	-0.0008343067
129	0x3d525aa6	0.05135598
130	0x3d3fa4dc	0.04678808
131	0xbd8e9707	-0.069624
132	0xbd621482	-0.05519534
133	0x3bf58ef2	0.007493847
134	0x3d46dcca	0.048550405
135	0x3c0238c7	0.007948107
136	0x3cc961ac	0.024582706
137	0xbd276caf	-0.040875133
138	0xbd999223	-0.074985765
139	0xbb934439	-0.0044942168
140	0xbd23984e	-0.03994017
141	0xbcb563c8	-0.022142306
142	0xbcf15292	-0.029458318
143	0x3d32a79c	0.043616876
144	0x3d2a716c	0.041612074
145	0xbc22c83c	-0.009935435
146	0xbe02fa83	-0.12790875
147	0x3c002daa	0.007823387
148	0xbc52893e	-0.012850104
149	0x3c8efdca	0.017455
150	0x3dae9848	0.08525139
151	0xbcc2825f	-0.023743806
152	0x3d9a2c8d	0.07528029
153	0x3cfd47b4	0.03091798
154	0x3d512ec3	0.051069986
155	0xbd11ad23	-0.035565507
156	0xbd2a4328	-0.04156795
157	0x3d8e2204	0.06940082
158	0xba8033dd	-0.0009781081
159	0x3d001796	0.031272493
160	0x3cd6a3ea	0.026201207
161	0xbc945f03	-0.018111711
162	0x3c9d22ee	0.019181695
163	0x3d3827a7	0.04495969
164	0xbd8bf43b	-0.06833693
165	0x3c815a13	0.015790021
166	0xbcab9654	-0.020945705
167	0x3c28ac63	0.010295006
168	0xbcfb2574	-0.030657507
169	0x3db2eff7	0.08737176
170	0xbc29ad0d	-0.0103562
171	0xbcf3ffb0	-0.029785007
172	0x3d6a203c	0.057159647
173	0x3d5871fc	0.05284308
174	0xbda4fb2f	-0.08055722
175	0xbd63e049	-0.055633817
176	0xbdb85895	-0.09001271
177	0x3cfab195	0.030602256
178	0xbd811fbd	-0.06304882
179	0x3c446e82	0.011989238
180	0x3d4f03ed	0.050540853
181	0x3bc9bc94	0.0061565135
182	0x3d57158a	0.052510776
183	0x3db6a7cd	0.08918724
184	0x3d08849e	0.0333296
185	0x3d32b2b4	0.043627456
186	0xbd877769	-0.066145726
187	0xbcbffbc0	-0.023435473
188	0xbd8dd57b	-0.06925484
189	0x3bd76afb	0.0065740324
190	0xbc3b00af	-0.011413737
191	0xbd79ff44	-0.061034456
192	0xbcb83068	-0.02248402
193	0x3d501534	0.05080147
194	0x3c961229	0.018319206
195	0x3cd734ce	0.026270296
196	0xbdac4c3a	-0.084129766
197	0xbcbe92da	-0.023263384
198	0xbd96b0c4	-0.07357934
199	0xbd059254	-0.032610252
200	0x3c59e8ed	0.013300163
201	0xbd297286	-0.041368984
202	0xbbff225d	-0.007786079
203	0xbd524bed	-0.05134194
204	0xb9f00b32	-0.00045784708
205	0xbd6aec90	-0.05735451
206	0x3cf71031	0.030159088
207	0x3d3526f0	0.044226587
208	0xbd7de09f	-0.061981793
209	0xbd29d320	-0.04146111
210	0x3cb8090d	0.022465253
211	0xbd110d10	-0.035412848
212	0xbd9b725e	-0.07590173
213	0xbd720075	-0.059082467
214	0x3da9a490	0.08283341
215	0xbd061fad	-0.032745052
216	0x3dbb2140	0.09137201
217	0x3d22ce1f	0.039747354
218	0xbc0e374e	-0.008680178
219	0x3da17fdb	0.078857146
220	0xbd064085	-0.032776374
221	0x3c660f11	0.014041678
222	0x3ccd6f1c	0.025077395
223	0x3d7dd07d	0.061966408
224	0x3d4980be	0.049195044
225	0xbbdcc146	-0.006736907
226	0xbcb43323	-0.02199704
227	0xbd7176b6	-0.058951102
228	0x3d1a93bb	0.037738543
229	0x3d355cb2	0.044277854
230	0x3ca81e96	0.020522397
231	0xbcd29dba	-0.025709976
232	0x3d74477d	0.05963849
233	0x3d962c03	0.07332613
234	0x3d363afa	0.04448984
235	0xbd59dd52	-0.053189583
236	0xbd7d73e1	-0.06187809
237	0xbb602997	-0.0034204477
238	0x3d7d3278	0.06181571
239	0x3d8eda79	0.06975264
240	0xbcf49f00	-0.029860973
241	0xbd85ca44	-0.0653272
242	0x3c9f86dc	0.019473486
243	0xbc04a8b4	-0.008096863
244	0x3b04412e	0.0020180452
245	0x3ab6c9a8	0.0013945596
246	0x3dbf8632	0.093517676
247	0x3d199671	0.037496988
248	0x3d2aba9b	0.041681867
249	0xbd2cd264	-0.04219283
250	0xbb8d99e2	-0.004321323
251	0xbd8b3ee9	-0.067991085
252	0xbd944431	-0.07239569
253	0xbd7fb457	-0.062427845
254	0xbd03d3bb	-0.032184344
255	0x3d9082e3	0.07056215

thresh_approx.conv1.bias f4 [64]
0	0x3d1197c4	0.035545126
1	0xbcf75ccb	-0.030195614
2	0x3d55beff	0.0521841
3	0xbdadfb33	-0.08495178
4	0x3da4a470	0.080391765
5	0x3d894942	0.06703426
6	0xbd663b6b	-0.05620901
7	0x3d97ce03	0.074123405
8	0xbd9b79ec	-0.07591614
9	0x3c83bbd3	0.016080773
10	0x3d3edc68	0.046596915
11	0x3d958a37	0.07301753
12	0xbdaac709	-0.08338744
13	0x3b4df826	0.0031428426
14	0x3db04e92	0.08608736
15	0x3d3ee345	0.04660346
16	0xbd132e63	-0.03593291
17	0x3d871d63	0.06597402
18	0xbd654da8	-0.055982262
19	0xbce6f104	-0.028191097
20	0x3babc6d1	0.0052422066
21	0xbdae2d32	-0.08504714
22	0xbd91950f	-0.07108509
23	0xbd6850cd	-0.056717683
24	0x3cff717d	0.031182045
25	0xbc8b398a	-0.01699521
26	0xbd975398	-0.07388991
27	0x3c3cb3b9	0.011517459
28	0x3d5d40bc	0.054016814
29	0xbc81ca71	-0.015843602
30	0x3d072803	0.032997143
31	0x3ce0529c	0.027383141
32	0x3da4235f	0.08014559
33	0xbd03d04b	-0.032181066
34	0x3da2b5ec	0.07944855
35	0xbc554ca4	-0.013018761
36	0xbd82b7ab	-0.06382688
37	0x3d9b485d	0.075821616
38	0x3da86b3c	0.08223578
39	0xbd2d6959	-0.042336795
40	0xbd6c7acf	-0.057734307
41	0x3dbc637f	0.09198665
42	0x3d24c8b4	0.040230468
43	0xbcf6e10e	-0.030136611
44	0xbd66d6cc	-0.05635719
45	0xbd2607a7	-0.04053464
46	0x3c980c48	0.018560544
47	0x3da1fbd9	0.07909364
48	0x3d455925	0.048180718
49	0x3d92d032	0.07168616
50	0xbd32192a	-0.04348103
51	0xbd331950	-0.04372531
52	0xbd69526b	-0.056963366
53	0x3d1b3729	0.0378944
54	0xbd232595	-0.039830763
55	0x3ca4102e	0.020027246
56	0x3da63997	0.08116453
57	0xbd2b7676	-0.04186102
58	0x3cfb8318	0.030702159
59	0xbc5c4dd8	-0.013446294
60	0x3d93ce15	0.072170414
61	0xbd3f6104	-0.04672338
62	0xbc32dff8	-0.010917656
63	0x3d2756a0	0.040854096

thresh_approx.conv2.weight f4 [1, 64, 1, 1]
0	0xbe01e7af	-0.12686037
1	0x3da047e9	0.07826216
2	0x3ddee84d	0.108841516
3	0xbdb60b9b	-0.08888932
4	0x3ccc75d3	0.024958527
5	0x3db1cd51	0.08681739
6	0x3d3584b3	0.044316005
7	0x3d73acdc	0.059491023
8	0xbd966de9	-0.073451824
9	0x3dc3f9ef	0.095691554
10	0xbdd42c2d	-0.10359988
11	0x3cea0f63	0.02857179
12	0x3d883085	0.06649879
13	0x3dbe501d	0.09292624
14	0xbd9b0e98	-0.07571143
15	0xbdfd8e9d	-0.12380717
16	0xbda3345c	-0.07968971
17	0xbd23ebbf	-0.040019747
18	0xbd98479a	-0.07435532
19	0x3d1611e4	0.036638156
20	0x3d99b376	0.075049326
21	0x3c603fc7	0.013687081
22	0x3d663651	0.056204144
23	0xbdc4ea80	-0.0961504
24	0x3dbadcf2	0.09124173
25	0xbdcab79c	-0.09898302
26	0x3dad4c7e	0.08461855
27	0xbd53f486	-0.051746868
28	0xb8b56534	-8.649603e-05
29	0x3db9a6ce	0.090650186
30	0x3db334e5	0.08750323
31	0xbdc9feee	-0.09863077
32	0x3cfea2f9	0.03108357
33	0x3d8fe583	0.07026198
34	0xbda44dee	-0.080226764
35	0xbdce92af	-0.100865714
36	0xbca076b2	-0.019587848
37	0x3d2125e9	0.039342795
38	0x3dd4a403	0.10382845
39	0x3df98412	0.121833935
40	0x3d707b6f	0.058711465
41	0x3d8ab9b2	0.067737
42	0xbdad33e7	-0.08457165
43	0x3d6f9214	0.05848892
44	0xbd987848	-0.07444817
45	0xbd0ee7f1	-0.034889165
46	0x3cf3b54a	0.029749531
47	0xbd7e7894	-0.06212671
48	0xbd6eea45	-0.058328886
49	0x3b57132a	0.003281782
50	0xbd4d0350	-0.050051987
51	0xbcb504df	-0.02209705
52	0xbc84a797	-0.016193194
53	0x3d26978b	0.040671866
54	0xbc906044	-0.017624028
55	0xbba39566	-0.004992175
56	0xbd7e1b97	-0.06203803
57	0x3bd7ee4c	0.0065896865
58	0x3c69e8a9	0.014276662
59	0x3db52473	0.08844843
60	0xbc72cc0b	-0.014819155
61	0xbc868092	-0.016418729
62	0xbdaff49c	-0.085915774
63	0xbd57dfb8	-0.05270359

shrink_approx.conv0.weight f4 [128, 1, 1, 1]
0	0x3f66d36f	0.9016637
1	0x3e7edb2a	0.24888292
2	0x3e8e3d9f	0.27781388
3	0xbe9eedd6	-0.3104083
4	0xbf6e6377	-0.9312052
5	0xbf291839	-0.66052586
6	0xbf42edd5	-0.7614415
7	0x3e6966e2	0.22793153
8	0x3e95af5d	0.29235354
9	0xbf2d50b1	-0.6770125
10	0xbe47a10d	-0.1949503
11	0x3e93c12b	0.28858313
12	0xbf653e4d	-0.8954819
13	0xbf128221	-0.5722981
14	0xbe0faad3	-0.14030008
15	0xbf5658a4	-0.83729005
16	0xbf6eb3a3	-0.93242854
17	0x3ecf6076	0.4050328
18	0xbd5f16ec	-0.05446522
19	0xbedd4d28	-0.43222928
20	0xbb8859ef	-0.0041611115
21	0x3d918526	0.07105474
22	0xbf180006	-0.59375036
23	0x3e148dc5	0.14507206
24	0xbf75dce3	-0.9604017
25	0x3f1d56e8	0.61460733
26	0xbe2b729d	-0.1674294
27	0x3f38c8bd	0.721813
28	0x3f20072b	0.6251094
29	0x3f192977	0.59828895
30	0xbf2e95f0	-0.68197536
31	0x3f5d2410	0.8638315
32	0x3f1fd92e	0.62440765
33	0x3ee01340	0.43764687
34	0x3f16f07e	0.5896071
35	0xbf05f469	-0.52326065
36	0x3ea96117	0.33081886
37	0x3e7d0c14	0.24711639
38	0xbe567e03	-0.20946507
39	0xbf768c4b	-0.9630782
40	0x3f805462	1.0025752
41	0xbe8f16a7	-0.2794697
42	0x3f0fd672	0.5618659
43	0xbf068529	-0.52546936
44	0x3e2b8b60	0.16752386
45	0xbe4931b9	-0.19647874
46	0xbd9cfa05	-0.07664875
47	0x3f138484	0.5762408
48	0xbeee8f21	-0.46593574
49	0x3e087c76	0.13328728
50	0x3f4b8510	0.7949991
51	0xbbecc9ea	-0.0072262185
52	0xbd69b6ce	-0.0570591
53	0x3dc262bb	0.094914876
54	0xbf38a45f	-0.7212581
55	0x3e1afe8c	0.15136164
56	0xbf7203bf	-0.94536966
57	0x3f4c362b	0.79770154
58	0x3dd4bea6	0.10387926
59	0x3d486f1b	0.048934083
60	0x3f6f1b11	0.93400675
61	0xbf611c3e	-0.8793372
62	0x3dbf0050	0.093262315
63	0x3f22661a	0.63437045
64	0xbd8ffa43	-0.070301555
65	0x3ec86d8a	0.39146072
66	0xbe0ad6c2	-0.13558486
67	0xbf19bf36	-0.6005739
68	0xbe8901c6	-0.26759166
69	0x3e0f1ec7	0.13976584
70	0xbf4b99d6	-0.7953161
71	0xbeddaf82	-0.43297964
72	0xbe613f06	-0.21996698
73	0xbd4259df	-0.04744899
74	0x3f44335d	0.76640874
75	0xbf0b5f53	-0.5444233
76	0xbf6456da	-0.89195025
77	0x3f1537ef	0.5828847
78	0xbf017190	-0.5056391
79	0xbe8181ce	-0.25294346
80	0x3eab6dd6	0.33482236
81	0xbe5a8bd5	-0.21342404
82	0x3f72c7cf	0.94836134
83	0xbe8810ec	-0.2657541
84	0x3e8e3615	0.27775636
85	0x3f80a92d	1.0051628
86	0x3f6e58ef	0.9310445
87	0x3ebf68a6	0.37384528
88	0x3dc5fdb5	0.096675314
89	0xbf164189	-0.5869375
90	0x3f4d8e10	0.80294895
91	0x3f3f052e	0.7461728
92	0xbf6946c3	-0.911236
93	0xbe88fbdf	-0.26754662
94	0xbf685ef7	-0.90769905
95	0x3ee45aa7	0.44600412
96	0xbf65483d	-0.8956335
97	0xbf629006	-0.8850101
98	0xbe2c74e7	-0.1684147
99	0x3f68566a	0.9075686
100	0xbf31add3	-0.6940586
101	0x3f3d41ed	0.7392872
102	0xbe96fb90	-0.29488802
103	0x3eff5694	0.4987074
104	0xbf1ee609	-0.62069756
105	0xbf6e6f11	-0.93138224
106	0xbea3eb16	-0.32015294
107	0x3f339b39	0.70158726
108	0x3f3de900	0.74183655
109	0x3d8bf81c	0.068344325
110	0x3f230b92	0.6368953
111	0xbd8b8307	-0.06812101
112	0xbcedc0f8	-0.029022679
113	0x3f17027b	0.5898816
114	0x3e8e2cc3	0.27768525
115	0xbf3d395b	-0.7391564
116	0x3f247983	0.6424791
117	0xbf7399d4	-0.951566
118	0xbe89d3c1	-0.26919368
119	0xba64d369	-0.00087290123
120	0x3f836b0b	1.0267042
121	0x3f2c3e1d	0.6728228
122	0x3d00a443	0.031406652
123	0x3d242117	0.04007062
124	0x3f3db338	0.7410159
125	0xbf4915d1	-0.78548914
126	0x3e72e4d4	0.23720104
127	0xbeb7df50	-0.3591256

shrink_approx.conv0.bias f4 [128]
0	0xbef37e49	-0.47557285
1	0xbec526db	-0.38506207
2	0x3d6139db	0.054986816
3	0x3f108e46	0.5646709
4	0x3ec9440e	0.39309734
5	0xbe5cba85	-0.21555527
6	0xbf2bcf08	-0.6711278
7	0xbea3d3ef	-0.3199763
8	0x3f6c7b2c	0.92375445
9	0x3f5b6056	0.8569387
10	0xbe3cfee3	-0.18456607
11	0xbf2e989c	-0.68201613
12	0xbe706942	-0.23477653
13	0x3ec374cb	0.38175043
14	0xbf4cc4d1	-0.7998782
15	0x3e65a8ce	0.22427675
16	0x3f053744	0.52037454
17	0x3e0260c9	0.12732233
18	0x3eab8c33	0.335054
19	0xbd642986	-0.055703662
20	0xbee920ed	-0.45532933
21	0xbf36b665	-0.7137206
22	0x3f7da24b	0.99075764
23	0x3d115377	0.03547999
24	0xbcfdf0d3	-0.030998623
25	0xbf5959f5	-0.8490289
26	0xbd3516e0	-0.04421127
27	0xbea9c670	-0.33159208
28	0xbf335c20	-0.70062447
29	0x3e8877d6	0.26653928
30	0xbd41b2cd	-0.04728966
31	0x3f6bfdb1	0.9218398
32	0x3e3bef65	0.1835304
33	0x3f719cc0	0.94379807
34	0xbd396dfd	-0.04527091
35	0x3f243f22	0.64158833
36	0xbec8b542	-0.3920079
37	0x3f2bcc3e	0.67108524
38	0xbe71d08b	-0.23614709
39	0xbe9832fa	-0.29726392
40	0xbdbaa31c	-0.09113142
41	0xbd66a77d	-0.056312073
42	0xbf2f32ce	-0.68436897
43	0x3f23e3cf	0.64019483
44	0xbdc49052	-0.095978394
45	0xbf2ff2ca	-0.6872984
46	0x3f4936f0	0.7859945
47	0x3f74d74b	0.9564101
48	0x3f2093b1	0.6272536
49	0x3f2d74b1	0.6775618
50	0x3df495ed	0.119426586
51	0x3f612179	0.879417
52	0xbf6091f1	-0.8772269
53	0xbef954cb	-0.48697504
54	0xbc3d36f7	-0.011548749
55	0xbdb188a7	-0.086686425
56	0xbf4f9e2a	-0.81100714
57	0xbf78c6ac	-0.9717815
58	0xbf559af6	-0.83439577
59	0x3f7775b1	0.9666396
60	0x3f563b4c	0.8368423
61	0x3f4bb890	0.79578495
62	0x3f317224	0.6931479
63	0x3e8c2de5	0.27378765
64	0xbf11fdeb	-0.57028073
65	0x3d41ccb4	0.04731436
66	0x3f6267da	0.88439715
67	0x3e846009	0.2585452
68	0xbe621ef4	-0.2208212
69	0x3e3b2bbd	0.18278404
70	0x3eec0b02	0.46102148
71	0x3f32b009	0.6979986
72	0xbf24d2bc	-0.64384055
73	0x3f36e31b	0.71440285
74	0x3f2d21d7	0.6762976
75	0xbf65462f	-0.89560217
76	0xbee83b38	-0.4535768
77	0xbf65351c	-0.89534163
78	0x3f082b05	0.5319064
79	0xbf7893a1	-0.97100264
80	0x3f5d46f6	0.864364
81	0xbed2fb6a	-0.4120744
82	0x3e4d234f	0.20033
83	0xbeec3518	-0.46134257
84	0xbe3d54ed	-0.18489428
85	0xbdf4f3b9	-0.11960549
86	0x3f7a3ab7	0.9774584
87	0x3f6a35a0	0.91488075
88	0xbf7e0630	-0.9922819
89	0x3f224649	0.63388497
90	0xbeb18c0e	-0.34677166
91	0xbf08ccc6	-0.5343746
92	0xbdd53379	-0.10410208
93	0xbe99d8ef	-0.3004832
94	0xbe134ee0	-0.14385557
95	0x3f278db0	0.6545057
96	0x3e342e71	0.17595841
97	0xbf73e9d0	-0.95278645
98	0xbee636e2	-0.44963747
99	0x3ec624e0	0.38700008
100	0x3f3268d5	0.6969121
101	0xbcd46de3	-0.025931304
102	0x3d905048	0.070465624
103	0x3e97fd8e	0.29685634
104	0xbf054d3b	-0.5207097
105	0x3f4ffa07	0.81240886
106	0x3ef7f9fc	0.4843291
107	0xbf030248	-0.51175356
108	0xbf4e3e06	-0.8056339
109	0x3f4ba244	0.7954447
110	0xbd7d61f4	-0.061860994
111	0x3ea06095	0.31323686
112	0xbe7dacc1	-0.24772932
113	0x3f4b25d8	0.7935462
114	0xbe7d71ff	-0.24750517
115	0xbeb9e8af	-0.36310336
116	0x3f42710a	0.75953734
117	0xbe81cb05	-0.25350204
118	0x3dd4db89	0.103934355
119	0x3f031d3e	0.51216495
120	0xbe08e878	-0.1336993
121	0xbeb0a82f	-0.34503314
122	0x3f67abda	0.904966
123	0xbf52cff5	-0.8234857
124	0x3e9c21bf	0.30494496
125	0xbf5a6ba0	-0.8532047
126	0x3f71a225	0.9438804
127	0xbf222a4a	-0.6334578

shrink_approx.conv1.weight f4 [64, 128, 1, 1]
0	0xbda1ef6f	-0.079069965
1	0x3d566b67	0.05234852
2	0x3cae4a83	0.021275764
3	0x3d01f04b	0.0317233
4	0x3d80bcc7	0.062860064
5	0xbd2f3850	-0.042778313
6	0xbda201b5	-0.07910482
7	0x3d9e00b4	0.07714978
8	0x3d9753e8	0.07389051
9	0x3d9c6372	0.07636155
10	0x3d0509f7	0.032480206
11	0xbd8320c2	-0.064027324
12	0x3d83b61b	0.06431218
13	0xbc0fcbfb	-0.00877666
14	0x3d4c626f	0.04989856
15	0x3cca12b3	0.02466712
16	0xbd973f21	-0.07385088
17	0x3d131465	0.03590812
18	0xbd961381	-0.07327939
19	0xbd8aca3c	-0.067768544
20	0xbbbb3cdf	-0.0057140435
21	0xbd92367d	-0.07139299
22	0x3d0442c0	0.03229022
23	0x3d2fb066	0.042892836
24	0xbc509430	-0.012730643
25	0xbb7489b1	-0.0037313516
26	0xbd4e27db	-0.050330978
27	0xbd87e93a	-0.06636281
28	0xbd8ab57b	-0.06772896
29	0xbd92ef42	-0.07174541
30	0xbdc1adf0	-0.09457004
31	0x3dcad256	0.099034
32	0xbd40781d	-0.04698955
33	0xbd866ea6	-0.06564073
34	0x3c4dd9fd	0.0125641795
35	0xbc820897	-0.015873237
36	0xbc58a0fb	-0.0132219745
37	0x3c83b7db	0.01607888
38	0xbc998c26	-0.018743586
39	0x3c77d922	0.015127452
40	0x3d2b94b9	0.04188988
41	0x3cf84c0c	0.0303097
42	0xbd85f053	-0.06539979
43	0x3bbb11bd	0.0057089017
44	0xbda45c14	-0.08025375
45	0x3d4c1227	0.049822
46	0xbd578772	-0.052619405
47	0x3b94bb1e	0.0045389077
48	0xbd10ab78	-0.035319775
49	0x3da9264f	0.0825926
50	0x3d82a14b	0.063784204
51	0xbc479c10	-0.012183204
52	0x3d380eee	0.044936113
53	0x3d517ca3	0.051144253
54	0x3ce21b53	0.02760092
55	0xbd96a269	-0.07355196
56	0x3d815175	0.06314365
57	0x3d992c96	0.07479207
58	0xbd8a64af	-0.06757485
59	0x3dbd5d91	0.09246362
60	0xbd885756	-0.06657283
61	0x3d6f1f55	0.05837949
62	0x3da36a70	0.07979286
63	0x3cc915b1	0.024546476
64	0x3d9bb200	0.0760231
65	0x3dc3ccdb	0.095605575
66	0x3d5ed5ca	0.054403104
67	0x3b819b97	0.0039553153
68	0xbd1506c5	-0.03638341
69	0x3d2bf195	0.041978437
70	0xbd9b1703	-0.075727485
71	0xbc74988f	-0.014928951
72	0x3c1102e1	0.008850784
73	0xbd2533bb	-0.040332537
74	0x3cb8960f	0.022532491
75	0xbbb93288	-0.0056517757
76	0xbcf98193	-0.030457294
77	0xbd90ece6	-0.07076435
78	0xbc139374	-0.0090073235
79	0xbda7a2b0	-0.08185327
80	0x3c83be1d	0.016081864
81	0xbc364780	-0.011125445
82	0xbce77a57	-0.028256578
83	0x3d3b1c94	0.04568155
84	0xbcda08db	-0.02661555
85	0x3d491707	0.049094226
86	0xbd86b675	-0.0657777
87	0x3cc1374f	0.023585944
88	0xbd2b966f	-0.04189151
89	0x3d7be7b4	0.061500266
90	0x3d07ac20	0.033123136
91	0xbd8501f1	-0.06494511
92	0xbd4cb5cc	-0.049978063
93	0xbda9971c	-0.08280775
94	0x3d1cd899	0.0382925
95	0x3d40f830	0.04711169
96	0xbce8e81e	-0.028430995
97	0xbd965bd1	-0.07341731
98	0xbd51aa55	-0.051187832
99	0x3da97517	0.08274286
100	0xbbc7877b	-0.0060891486
101	0x3d3d7232	0.046251483
102	0x3cc1d3d9	0.023660587
103	0x3db78d90	0.08962548
104	0xbb900e20	-0.004396215
105	0x3bbbc777	0.005730565
106	0xbda04f7d	-0.07827661
107	0xbd033b83	-0.032039177
108	0xbcaa4de8	-0.020789102
109	0xbc5be3ac	-0.01342098
110	0x3da4be78	0.080441415
111	0x3db99405	0.090614356
112	0xbbfe25c4	-0.007755967
113	0xbd96c5d0	-0.073619485
114	0xbd7d98bb	-0.061913233
115	0xbd58078e	-0.05274158
116	0xbd769a94	-0.06020601
117	0xbcf67355	-0.030084291
118	0xbd88a184	-0.06671432
119	0x3dc31bfb	0.09526821
120	0x3da5ea79	0.08101363
121	0x3d6f0c28	0.058361202
122	0xba27d7b3	-0.0006402686
123	0xbc211168	-0.00983081
124	0x3c2365ca	0.009972999
125	0xbd64f334	-0.055896
126	0x3d548f6f	0.0518946
127	0xbd97f529	-0.074198075
128	0xbcccca3c	-0.024998777
129	0x3d3836f6	0.04497429
130	0xbbc7d0f6	-0.006097908
131	0x3d13f0fb	0.03611849
132	0xbdab8e54	-0.08376756
133	0xbd85a8ce	-0.065263376
134	0xbd8e6254	-0.06952348
135	0x3cbd7358	0.02312629
136	0xbd9b12e1	-0.0757196
137	0xbd27ac75	-0.040935952
138	0xbcdf857c	-0.02728533
139	0x3d340f35	0.043959815
140	0x3d0e7862	0.034782775
141	0x3daf369c	0.08555338
142	0x3d7cf22b	0.061754387
143	0x3d231fb4	0.039825156
144	0xbd82afd3	-0.06381192
145	0x3d3b3d4c	0.045712754
146	0xbce7b1d1	-0.028283032
147	0x3cb51aa5	0.022107432
148	0x3d51f662	0.05126036
149	0xbcee5714	-0.029094256
150	0xbb72aa19	-0.0037027656
151	0xbca637dc	-0.020290308
152	0xbbd958a3	-0.006632881
153	0xbcf932e5	-0.030419776
154	0xbd0113e2	-0.031513102
155	0xb9a1907f	-0.0003081597
156	0xbdc3627e	-0.0954027
157	0x3d9ac73c	0.07557532
158	0x3c6de776	0.014520517
159	0x3bbfc040	0.0058517754
160	0xbd129cba	-0.035793997
161	0xbd8883e1	-0.06665779
162	0x3de9313a	0.11386342
163	0xbd167480	-0.036732197
164	0xbd112d08	-0.035443336
165	0x3b5df468	0.0033867601
166	0x3bb101e2	0.005401836
167	0xbc084388	-0.008316882
168	0xbd0ac1fc	-0.033876404
169	0x3d439e50	0.0477584
170	0xbca39f15	-0.019973317
171	0x3dbbf037	0.09176677
172	0x3c72c13a	0.014816577
173	0xbaf7dc3d	-0.0018910241
174	0xbb151d9d	-0.0022753247
175	0xbb5265db	-0.0032104168
176	0xbbef9d1e	-0.007312431
177	0x3d377b17	0.044795122
178	0x3d9880bf	0.07446431
179	0xbd63b1c0	-0.055589437
180	0xbd204dae	-0.03913658
181	0x3a57009a	0.0008201689
182	0x3d70ef03	0.05882169
183	0x3d9678ea	0.07347281
184	0xbdc59a7a	-0.09648605
185	0xbdc1a932	-0.094560996
186	0x3b9983ef	0.004684917
187	0xbd892a12	-0.066974774
188	0xbc210da4	-0.009829912
189	0x3d35de08	0.0444012
190	0x3b9a458c	0.0047079977
191	0xbc0db468	-0.008648969
192	0xbdc64d72	-0.0968274
193	0x3d3be9fe	0.04587745
194	0x3ccec600	0.025240898
195	0x3d4076ac	0.046988174
196	0x3cbcc60f	0.02304366
197	0xbd56bd05	-0.052426357
198	0xbc9c2a9b	-0.019063285
199	0x3db86cd7	0.090051346
200	0xbd2d9fc9	-0.04238871
201	0x3d91b994	0.07115474
202	0x3dc63af9	0.09679217
203	0x3d370d4e	0.044690423
204	0x3d4915fa	0.049093224
205	0xbd557dbc	-0.052121863
206	0x3d3f4a7b	0.04670189
207	0x3d21d159	0.03950629
208	0xbcf72273	-0.030167794
209	0xbd803a94	-0.06261173
210	0xbd82feb8	-0.0639624
211	0xbd1a4346	-0.037661813
212	0xbc3f254e	-0.011666609
213	0x3d6cb2ed	0.057787824
214	0xbc54532f	-0.012959286
215	0x3d02e1bc	0.03195356
216	0xbd95dd16	-0.073175594
217	0x3d3982e0	0.045290828
218	0x3d9e1817	0.077194385
219	0xbd83e3a9	-0.06439907
220	0x3d805d10	0.0626775
221	0x3d7d6ca3	0.061871182
222	0xbd7c46c7	-0.061590936
223	0x3da1b5d2	0.078960076
224	0xbde08d2e	-0.10964428
225	0xbdb4435c	-0.0880191
226	0xbc2b89f0	-0.010469899
227	0xbd975216	-0.073887035
228	0xbd988e54	-0.07449022
229	0x3d94b144	0.07260373
230	0xbdee7bdb	-0.11644717
231	0x3d86ebc1	0.06587935
232	0xbce46ddb	-0.027884414
233	0xbd522cfe	-0.05131244
234	0x3dc45466	0.0958641
235	0xbda08e75	-0.078396715
236	0x3d8cffa9	0.06884701
237	0x3daa82cc	0.08325729
238	0x3d847629	0.0646785
239	0xbaf949f0	-0.0019019227
240	0x3d878121	0.06616426
241	0xbcd93eab	-0.02651914
242	0xbd710094	-0.058838442
243	0xbcaca08b	-0.021072647
244	0xbd060a7e	-0.03272485
245	0x3cce568b	0.025187751
246	0xbc574194	-0.013138194
247	0xbcba4090	-0.022735864
248	0x3d1bdeda	0.038054325
249	0x3d92ded7	0.071714096
250	0x3ca44e33	0.02005682
251	0x3d9a168a	0.0752383
252	0xbd637c8b	-0.055538695
253	0xbd6547eb	-0.05597679
254	0x3dc47e68	0.095944226
255	0xbd9b2599	-0.075755306

shrink_approx.conv1.bias f4 [64]
0	0x3d9a0ac1	0.075215824
1	0x3cc28e97	0.023749633
2	0xbd65d406	-0.056110404
3	0xbd1d511e	-0.038407438
4	0xbc0e5c1c	-0.008688953
5	0x3d727423	0.059192788
6	0x3dba46a1	0.09095503
7	0x3d6e2ffe	0.058151238
8	0xbd4428d2	-0.04789049
9	0x3c5f6442	0.013634743
10	0x3d85928e	0.06522094
11	0xbd31cd17	-0.04340848
12	0xbcd1bf7b	-0.025604
13	0x3d423ff7	0.047424283
14	0x3b690626	0.0035556643
15	0xbc28d594	-0.010304827
16	0xbce0b7f8	-0.027431473
17	0x38cde11b	9.817091e-05
18	0xbba58d42	-0.0050522396
19	0x3cf37147	0.0297171
20	0xbd67b14f	-0.05656558
21	0xbd0675a4	-0.032827035
22	0x3be3e2ea	0.0069545405
23	0x3c9676f1	0.018367263
24	0xbc5745a1	-0.013139159
25	0xbd35b0fe	-0.044358246
26	0x3d0709f3	0.032968473
27	0xbd8615f5	-0.06547157
28	0xbbd530e5	-0.006506073
29	0x3ce358f3	0.027752375
30	0xbdb07785	-0.086165465
31	0x3dc901d9	0.098148055
32	0x3d767acf	0.060175713
33	0x3db00f97	0.085967235
34	0x3a9da399	0.0012026905
35	0x3d9e61d8	0.07733506
36	0x3d4039d0	0.046930134
37	0x3cec3f5e	0.02883881
38	0x3c84177c	0.01612448
39	0x3d53e629	0.05173317
40	0x3dbf861f	0.093517534
41	0xbd316b5f	-0.043315288
42	0x3d9ecdd5	0.07754103
43	0xbd8257b1	-0.06364382
44	0xbdc0b374	-0.09409228
45	0x3d01db35	0.031703193
46	0xbc957285	-0.018243084
47	0x3c950493	0.018190658
48	0x3d8186c0	0.0632453
49	0x3d8155d5	0.06315199
50	0xbc00a818	-0.007852577
51	0x3cce8dc7	0.02521409
52	0xbda78b53	-0.08180871
53	0xbcfc0ce5	-0.030767867
54	0x3dbfde72	0.093686
55	0xbdc62b49	-0.09676225
56	0xbd4783e6	-0.048709773
57	0x3ce54d20	0.027990878
58	0x3c19f84a	0.009397576
59	0x3a69d761	0.00089203386
60	0xbca71b10	-0.020398647
61	0xbca671a0	-0.020317852
62	0x3d6e42ee	0.058169298
63	0x3c0af635	0.008481552

shrink_approx.conv2.weight f4 [1, 64, 1, 1]
0	0x3dd246f8	0.102674425
1	0x3dc5f7a2	0.09666373
2	0xbcb9afd6	-0.022666853
3	0x3cc6cb52	0.024266873
4	0x3d5aa880	0.05338335
5	0x3d8a3656	0.06748645
6	0x3d8e1ed3	0.06939473
7	0xbe02edb3	-0.12785988
8	0xbde75f72	-0.112975016
9	0xbdc516ef	-0.09623515
10	0xbc7d54df	-0.015462129
11	0xbdef38ed	-0.116807796
12	0x3ddc6541	0.107615
13	0x3c5ebddf	0.0135950735
14	0xbd4fb029	-0.05070511
15	0x3dfc06bd	0.12305973
16	0xbcd881cb	-0.026429078
17	0xbd9d545b	-0.07682105
18	0x3c2b318b	0.010448824
19	0xbce78f72	-0.028266642
20	0x3dcb8b70	0.09938705
21	0x3cd6f73d	0.02624094
22	0xbdad4fdb	-0.08462497
23	0xbdc989b9	-0.09840722
24	0x3dad214d	0.08453617
25	0x3c7e6b3e	0.015528498
26	0x3ddb686c	0.10713276
27	0xbd9577c4	-0.07298234
28	0xbd1fa98c	-0.038980052
29	0xbdd2e03c	-0.102966756
30	0xbdbf5af1	-0.093435176
31	0x3db64381	0.08899594
32	0x3d673b57	0.056453075
33	0x39aa7acb	0.00032516415
34	0x3d5065d6	0.05087837
35	0x3dfe2373	0.12409105
36	0x3d7f3f25	0.06231608
37	0x3d34090e	0.043953948
38	0xbceff291	-0.02929047
39	0xbdc300cb	-0.095216356
40	0x3d07e101	0.033173565
41	0x3ddfc455	0.10926119
42	0xbcbc7310	-0.023004085
43	0xbd03c159	-0.032166813
44	0xbd08a70e	-0.03336244
45	0x3d41ee5e	0.047346465
46	0x3c8e3be8	0.01736255
47	0x3d0c0773	0.03418679
48	0x3d1535aa	0.03642813
49	0x39d683e5	0.0004091553
50	0xbd7f9fe4	-0.062408343
51	0xba0dc15c	-0.0005407536
52	0xbe054b2c	-0.13016957
53	0x3dfbeedd	0.12301419
54	0x3de7a968	0.113116086
55	0xbca87a20	-0.020566046
56	0xbda2a511	-0.0794164
57	0xbc440f95	-0.011966606
58	0xbd832fd5	-0.064056076
59	0x3d782413	0.060581278
60	0x3c1032da	0.008801186
61	0x3dad7c72	0.08471002
62	0xbd348a14	-0.044076994
63	0xbd8a3723	-0.06748798

out_layer.conv0.weight f4 [64, 1, 3, 3]
0	0xbdc63280	-0.09677601
1	0xbe88ecd0	-0.26743174
2	0xbe1de55e	-0.15419528
3	0x3dc31819	0.09526081
4	0xbe94b10a	-0.2904132
5	0x3cebccf5	0.028784255
6	0x3ea935bc	0.3304881
7	0x3eabe84a	0.3357566
8	0x3d6a6361	0.05722368
9	0x3e40e4b8	0.1883725
10	0xbe4ff03e	-0.20306489
11	0xbe949bff	-0.29025266
12	0xbe877465	-0.2645599
13	0xbdfaa699	-0.12238807
14	0x3e2fffe7	0.17187463
15	0x3e4feb3f	0.20304583
16	0xbca6478a	-0.020297784
17	0xbbfc23e5	-0.0076947086
18	0xbd02c8e8	-0.03192988
19	0xbe91e173	-0.28492317
20	0x3d678046	0.056518815
21	0x3e891a39	0.2677782
22	0x3e7a9a58	0.2447294
23	0xbc083e9c	-0.0083157085
24	0xbd0bf868	-0.034172446
25	0x3e48b502	0.19600299
26	0xbde889af	-0.11354386
27	0xbe2427c3	-0.16030793
28	0x3d18e070	0.037323415
29	0xbe4ad222	-0.19806722
30	0x3e9cf1f8	0.30653358
31	0x3e9f2c78	0.31088614
32	0xbe297ced	-0.16551562
33	0x3e4fdec1	0.20299818
34	0xbe6243cd	-0.22096176
35	0x3ea91752	0.33025604
36	0xbe409d82	-0.18810084
37	0x3dbed54a	0.093180254
38	0xbe9ec0ee	-0.3100657
39	0xbe34d42c	-0.17659062
40	0xbdfa3893	-0.12217822
41	0xbda20bfd	-0.07912443
42	0x3e58b2de	0.21161982
43	0xbd38fbd3	-0.045162033
44	0x3e8c6734	0.27422488
45	0x3e9bd723	0.30437574
46	0xbe3e4a1e	-0.18582961
47	0x3dd51c1d	0.10405753
48	0xbe0fef5e	-0.14056155
49	0xbd832afe	-0.064046845
50	0xbd7afa6f	-0.06127399
51	0x3e9aaff7	0.30212376
52	0x3e374093	0.17895727
53	0xbe033266	-0.12812194
54	0xbe374936	-0.17899022
55	0xbe0c4b99	-0.13700713
56	0x3dc05921	0.09392
57	0x3bbeaf05	0.005819204
58	0x3e8fabf6	0.28060883
59	0xbd8a34c4	-0.067483455
60	0x3e015874	0.12631398
61	0xbdc92919	-0.09822292
62	0xbe7b1c95	-0.24522622
63	0xbe674f37	-0.22588812
64	0x3ce0f5e9	0.02746101
65	0xbe9653fd	-0.29360953
66	0xbdf5ac26	-0.11995725
67	0xbd327eab	-0.04357783
68	0xbe176b47	-0.14787017
69	0xbea976a1	-0.3309832
70	0x3d6cd931	0.057824317
71	0x3e0dea16	0.13858828
72	0xbeac76e9	-0.3368447
73	0x3ea00a05	0.31257644
74	0xbeb7ea79	-0.35921076
75	0x3df10269	0.11768038
76	0xbe06ae9f	-0.1315255
77	0x3da6f1c5	0.08151583
78	0x3d14dc7e	0.03634309
79	0x3e8669dd	0.26252642
80	0x3d6fa94f	0.058511075
81	0xbe532b80	-0.20622063
82	0xbe048e50	-0.12944913
83	0x3e78bc16	0.24290499
84	0xbe899f0e	-0.26879162
85	0xbe903f65	-0.28173366
86	0x3e9b65f1	0.30351213
87	0x3cbfd1d3	0.023415482
88	0xbe1377c3	-0.14401154
89	0xbe8bd308	-0.27309442
90	0xbe0465c7	-0.1292945
91	0x3cb9f40d	0.02269938
92	0x3d1a1ec8	0.03762701
93	0xbd27276a	-0.040809073
94	0x3da55f60	0.08074832
95	0x3df7eb10	0.121053815
96	0x3e6ffaa2	0.23435453
97	0xbe90e79b	-0.283017
98	0x3c2454dc	0.010029998
99	0xbe9c0068	-0.3046906
100	0x3eac9063	0.33703908
101	0xbea59163	-0.32337484
102	0x3e8c53b6	0.27407616
103	0xbdc70d93	-0.09719386
104	0x3de0d637	0.10978358
105	0x3e351e43	0.17687325
106	0x3e9353b3	0.28774795
107	0xbd46d059	-0.04853854
108	0xbe53125d	-0.20612474
109	0xbe75a5a3	-0.23988967
110	0xbde54fe8	-0.111968815
111	0xbc064dd8	-0.00819727
112	0x3df89cbe	0.12139271
113	0xbdaf42b9	-0.08557648
114	0x3e406353	0.18787889
115	0x3e82f60a	0.25578338
116	0x3d699a2e	0.057031803
117	0xbda07d29	-0.078363724
118	0xbe9fba14	-0.31196654
119	0xbdd45e3f	-0.103695385
120	0xbde7b75e	-0.113142714
121	0xbe6f8186	-0.23389253
122	0x3e211579	0.15730847
123	0xbc713e61	-0.014724345
124	0xbe859ed4	-0.2609774
125	0x3d480c2f	0.048839744
126	0x3e891dfb	0.26780686
127	0xbe709e30	-0.23497844
128	0x3e683324	0.22675759
129	0x3d453ce0	0.048153758
130	0x3e0ade58	0.1356138
131	0xbd754abc	-0.059885725
132	0xbe6d28e8	-0.23160136
133	0x3d8f528e	0.06998168
134	0x3e813b17	0.25240394
135	0xbbb5f9e0	-0.005553469
136	0xbdf9699d	-0.12178347
137	0xbe827127	-0.25476953
138	0xbde827f1	-0.11335743
139	0x3bf9d170	0.007623844
140	0x3e83cddd	0.25743
141	0xbe94915c	-0.2901715
142	0xbea82c3c	-0.32846248
143	0x3c96bc07	0.018400205
144	0xbe83f9b6	-0.25776452
145	0x3e7d05e2	0.24709275
146	0xbcb3028a	-0.021851797
147	0x3dd12307	0.10211759
148	0xbd085b3b	-0.03329013
149	0xbead721e	-0.33876127
150	0x3df664c5	0.12030939
151	0x3ea212ec	0.3165506
152	0x3e866505	0.26248947
153	0xbe4a28d1	-0.19742133
154	0x3e4d1b44	0.20029932
155	0x3e22ba13	0.15891294
156	0xbadb4c25	-0.0016731067
157	0xbe605ca7	-0.21910344
158	0xbe95ebdb	-0.29281506
159	0x3e936006	0.28784198
160	0xbe9bac93	-0.304051
161	0x3e152cc2	0.14567855
162	0x3e003af3	0.12522487
163	0x3e540664	0.20705563
164	0x3e2e199d	0.17001958
165	0xbdc8868f	-0.0979129
166	0x3e96b4c6	0.29434794
167	0xbd530ef4	-0.051527932
168	0xbc50994b	-0.01273186
169	0x3ca80ce2	0.020513956
170	0x3e2f6989	0.17130102
171	0xbe6964ef	-0.2279241
172	0xbe8606d9	-0.261771
173	0xbe28876c	-0.1645791
174	0xbe201e8d	-0.15636654
175	0xbdc66f2f	-0.09689175
176	0x3df97b70	0.12181747
177	0xbe8e796f	-0.2782702
178	0xbd61e530	-0.05515021
179	0xbdbaae1e	-0.091152415
180	0x3e06cfb2	0.13165167
181	0x3e9a9863	0.30194387
182	0x3e87c8ca	0.26520377
183	0xbea553b2	-0.32290417
184	0x3ea21e77	0.31663868
185	0x3e8cfb4f	0.27535483
186	0xbdc7c2e0	-0.09753966
187	0xbe5c850b	-0.21535127
188	0xbe348f64	-0.17632824
189	0x3e5a3401	0.213089
190	0x3ea817d9	0.32830694
191	0x3e7b3136	0.24530491
192	0x3e4ceead	0.20012923
193	0x3da62827	0.08113127
194	0x3e9764b1	0.2956901
195	0x3b14fe2d	0.0022734508
196	0xbd206484	-0.03915836
197	0xbe1cbbd1	-0.15306021
198	0x3e9a19c4	0.30097783
199	0x3df8c859	0.12147588
200	0xbb8110a5	-0.0039387518
201	0xbe52f021	-0.20599414
202	0x3d369f07	0.044585254
203	0x3e4f8531	0.20265652
204	0x3d81ad55	0.063318886
205	0x3e39a1de	0.18128154
206	0x3e67b770	0.2262857
207	0xbe4ed0da	-0.20196858
208	0xbe9ed82a	-0.31024295
209	0x3e6aaf82	0.22918513
210	0xbe49c6c9	-0.19704737
211	0x3e6e1765	0.23251112
212	0xbe4ced4b	-0.20012395
213	0x3cd03b02	0.025418762
214	0xbe9df707	-0.3085253
215	0xbdfdf416	-0.12400071
216	0x3e896c49	0.26840428
217	0x3e2eb3be	0.17060754
218	0xbe9b9110	-0.3038411
219	0xbe7eaf1f	-0.24871491
220	0xbe325eca	-0.17418972
221	0x3e70054e	0.23439524
222	0xbe37c1fa	-0.1794509
223	0x3e0822c8	0.13294518
224	0x3da94845	0.082657374
225	0x3ea90488	0.3301127
226	0xbea2f494	-0.31827223
227	0xbe8590eb	-0.26087126
228	0x3e3b1d43	0.18272881
229	0xbea2045b	-0.31643948
230	0x3d654fd0	0.05598432
231	0x3d88ba55	0.06676165
232	0xbe207ad8	-0.15671861
233	0x3e47a862	0.19497827
234	0xbe9547d0	-0.2915635
235	0xbead1eef	-0.33812663
236	0x3e29da50	0.16587186
237	0xbe90775d	-0.28216067
238	0x3e1df2df	0.15424679
239	0x3d2dab4b	0.042399686
240	0xbdfaa706	-0.122388884
241	0x3e47a46d	0.19496317
242	0x3dbe653e	0.09296654
243	0x3e8696e4	0.26286995
244	0x3e277bf3	0.16355877
245	0xbe54ed48	-0.2079364
246	0xbe9684e3	-0.2939826
247	0xbd2e3dbf	-0.042539354
248	0xbdab09f0	-0.08351505
249	0x3ea5020d	0.32228127
250	0xbe2e30fc	-0.17010874
251	0xbead8345	-0.33889213
252	0x3e69a2a0	0.22815943
253	0x3d934e7e	0.071927056
254	0xbdfeed80	-0.12447643
255	0xbdb753f7	-0.08951562

out_layer.conv0.bias f4 [64]
0	0xbbdaedc0	-0.006681174
1	0xbe76aef9	-0.24090184
2	0x3e0128e7	0.1261326
3	0xbea5e1b8	-0.32398772
4	0xbddd018a	-0.10791309
5	0xbd68ac7e	-0.056805126
6	0xbe11595b	-0.14194243
7	0x3e3cd585	0.18440826
8	0xba8d6b0c	-0.0010789349
9	0xbdcfb285	-0.10141472
10	0x3e5a4e0c	0.21318835
11	0xbd9c3882	-0.076279655
12	0xbea88a11	-0.32917836
13	0xbe475460	-0.1946578
14	0xbc27bbfc	-0.01023769
15	0x3e2975e9	0.16548885
16	0x3da7a76d	0.08186231
17	0xbd742d9e	-0.059613816
18	0x3e3fb309	0.1872064
19	0xbe35060b	-0.17678086
20	0xbd933dd4	-0.07189527
21	0xbe40286f	-0.18765424
22	0xbdd876cc	-0.10569534
23	0x3e9958ad	0.29950467
24	0x3dd4a7fa	0.103836015
25	0xbe22d13c	-0.15900129
26	0x3dd07b36	0.101797506
27	0x3e31e60c	0.17372912
28	0xbe281d6a	-0.1641747
29	0xbea900f2	-0.33008534
30	0xbd0bcc11	-0.03413016
31	0x3e4f4afe	0.20243451
32	0xbb94473c	-0.0045250934
33	0xbe5641bc	-0.20923513
34	0x3e8e1c4e	0.2775597
35	0xbe5b9eff	-0.21447371
36	0x3e5ea66b	0.21743171
37	0x3e2d3c7c	0.16917604
38	0x3e3b019b	0.18262331
39	0x3e373a8e	0.1789343
40	0x3d1833c5	0.037158746
41	0x3c2433b6	0.0100220945
42	0xbdb89ea4	-0.09014633
43	0x3e620b53	0.22074632
44	0x3cd1b378	0.025598273
45	0xbdbb8884	-0.09156898
46	0x3dca2851	0.09870971
47	0x3de563c2	0.11200668
48	0xbe542590	-0.20717454
49	0xbe8e5564	-0.27799523
50	0x3e23187f	0.15927313
51	0x3e8440fc	0.2583083
52	0x3e637b3e	0.22214982
53	0xbe854660	-0.26030254
54	0xbe51d9d3	-0.2049325
55	0x3e291b0a	0.16514221
56	0xbb032f0a	-0.002001705
57	0xbe9f7ff3	-0.31152305
58	0xbe4751ab	-0.19464748
59	0xbb1780bc	-0.0023117503
60	0x3e24f298	0.16108167
61	0x3dc13618	0.09434146
62	0xbd6a7865	-0.057243723
63	0xbe72f411	-0.23725916

out_layer.conv1.weight f4 [64, 64, 3, 3]
0	0x3d250e80	0.04029703
1	0xbc89017f	-0.016724346
2	0xbc7311ce	-0.014835788
3	0x3cbb46a8	0.02286084
4	0xbd3bd44e	-0.045856766
5	0x3c33d4b2	0.0109760035
6	0xbb971cac	-0.0046115723
7	0x3cccafc7	0.02498616
8	0xbd32d21f	-0.04365742
9	0x3c17da73	0.009268391
10	0xbcbcc938	-0.023045167
11	0xbd205181	-0.03914023
12	0x3c435634	0.011922408
13	0xbd1882b1	-0.037234012
14	0xbd217636	-0.039419375
15	0xbb36d1dc	-0.0027896082
16	0x3b5e51e1	0.0033923315
17	0xbcf205e3	-0.029543823
18	0x3d0da6f9	0.034583066
19	0x3cafbcc8	0.021452323
20	0x3cad1ec1	0.021132829
21	0x3b866a0f	0.0041019986
22	0x3bc04875	0.0058680126
23	0x3d17c6be	0.03705477
24	0x3b41b219	0.0029555617
25	0x3ca01308	0.019540325
26	0x3ce287e2	0.027652685
27	0xbc0802d7	-0.008301458
28	0x3c6dffd2	0.014526324
29	0xbceac02e	-0.028656092
30	0xbcbef209	-0.02330877
31	0x3af4fe2d	0.0018691473
32	0xbc91d660	-0.017802417
33	0x3d09c595	0.033635695
34	0xbc9e0c9b	-0.01929312
35	0x3d0aaa02	0.03385354
36	0xbd16a813	-0.03678138
37	0x3b37e07d	0.002805739
38	0x3d0a59ec	0.033777162
39	0xbd3d508d	-0.046219397
40	0x3cc309c8	0.023808375
41	0xbd2dbce6	-0.042416476
42	0xbc6a38a7	-0.0142957335
43	0xbd14ae07	-0.036298778
44	0x3cfbb8f1	0.030727835
45	0xbcb30613	-0.021853482
46	0x3d12db11	0.03585345
47	0x3cbbfc31	0.022947403
48	0xbd30e9ec	-0.043191835
49	0xbae9830c	-0.0017815544
50	0x3c202e45	0.0097766565
51	0x39bf4c46	0.00036487187
52	0xbbfdb28c	-0.0077422317
53	0x3d20e9dd	0.03928553
54	0x3cad9d80	0.021193266
55	0xba4a12ff	-0.0007708519
56	0x3d1b5321	0.037921075
57	0xbb2574ba	-0.0025246576
58	0x3bd0a3ae	0.0063671684
59	0x3c554d83	0.0130189685
60	0x3c47e427	0.012200392
61	0x3c4b048e	0.012391223
62	0xbb76bbb3	-0.0037648499
63	0xbc111877	-0.0088559305
64	0x3d0939b5	0.0335023
65	0xbcb8c4b4	-0.022554733
66	0x3ce946dd	0.028476173
67	0x3b9eda90	0.004847832
68	0xbd28ea13	-0.041238856
69	0xbcefe155	-0.029282251
70	0xbb286793	-0.00256965
71	0xbcdb7603	-0.02678967
72	0x3d1041de	0.035219066
73	0x3c2d2d75	0.01056992
74	0x3d257422	0.040393956
75	0xbd345b80	-0.044032574
76	0x3cd9dedc	0.026595525
77	0xbc9ffe2a	-0.019530375
78	0x3c9a0167	0.018799497
79	0xbce8aa03	-0.02840138
80	0xbb84e342	-0.0040554116
81	0x3c911cbe	0.0177139
82	0x3d0026ce	0.031287007
83	0xbc693c42	-0.014235558
84	0x3bc110f1	0.005891912
85	0xb8af2e81	-8.353312e-05
86	0x3a5d25ed	0.00084361323
87	0xbc45d3b0	-0.012074396
88	0x3cd476e2	0.025935594
89	0x3d0ee1c5	0.03488328
90	0x3c2a3400	0.010388374
91	0xbd1a2c95	-0.037640173
92	0xbc4689e7	-0.012117839
93	0xbc5f7b0e	-0.013640178
94	0x3d067b56	0.032832466
95	0xbcc1000f	-0.023559598
96	0xbd21b2dd	-0.039477218
97	0x3ce58e10	0.028021842
98	0xbd1bfd75	-0.038083512
99	0x3d1460a3	0.036224972
100	0xbc4538a2	-0.012037428
101	0x3d010933	0.031502914
102	0x3d00b231	0.031419937
103	0xbd233858	-0.039848655
104	0xbd11e971	-0.035623018
105	0xbd047443	-0.03233744
106	0xbd011ddd	-0.03152262
107	0x3c061d6d	0.008185727
108	0xbd015a11	-0.031580035
109	0x3c723b81	0.014784695
110	0x3d1f1356	0.0388368
111	0xbc81eda0	-0.015860379
112	0x3cb062f4	0.02153156
113	0x3c6d1db3	0.014472413
114	0xbc64a61e	-0.013955621
115	0x3ccfca6f	0.025365083
116	0x3c53faa1	0.012938173
117	0xbc1d5991	-0.009603874
118	0xbc0b9159	-0.00851854
119	0xb9b8b57c	-0.0003523043
120	0x3be99457	0.007128279
121	0xbcb257bb	-0.021770349
122	0x3ca8d460	0.02060908
123	0x3bc9bec5	0.0061567747
124	0x3c7b2585	0.01532877
125	0x3b79ff96	0.0038146726
126	0x3c6b5b99	0.0143651
127	0x3d177501	0.036976818
128	0xbcdc8224	-0.026917525
129	0x3c9b6376	0.018968325
130	0xbc479075	-0.012180437
131	0x3c9800fb	0.018555155
132	0x3d227662	0.03966368
133	0x3cd6f8bf	0.026241658
134	0xba564d42	-0.00081749645
135	0x3c15777e	0.009122727
136	0x3c950149	0.01818909
137	0xbc948317	-0.018128915
138	0x3cd5f5cf	0.026118187
139	0x3cdb8747	0.026797904
140	0x3d28e1f9	0.04123113
141	0xbc4270b2	-0.011867689
142	0xbce68fe2	-0.02814478
143	0xbc082365	-0.00830922
144	0xbccc291f	-0.024921952
145	0xbc95eb41	-0.018300654
146	0x3cc7dcc3	0.02439726
147	0x3b429065	0.0029688117
148	0x3d1268c7	0.035744455
149	0xbd1a2751	-0.03763515
150	0xbca5f267	-0.020257188
151	0x3bf08bcf	0.0073408852
152	0xbbf6b1a4	-0.0075285006
153	0x3cd1bb13	0.0256019
154	0xbd2a1674	-0.04152532
155	0xbd471902	-0.048607834
156	0xbd058320	-0.032595754
157	0xbce5aa2c	-0.028035246
158	0x3c072910	0.008249536
159	0x3c1f40bb	0.009720023
160	0xbbd08091	-0.0063629826
161	0x3ac16e3c	0.0014757584
162	0xbd025eba	-0.03182862
163	0x3cc77f98	0.024352834
164	0xbd09e386	-0.03366425
165	0xbc6bd3ed	-0.014393789
166	0xbcc3f020	-0.023918211
167	0xbd2bc6a0	-0.04193747
168	0x3c7f50de	0.015583245
169	0xbbff0281	-0.007782281
170	0xba0b48d8	-0.0005313284
171	0x3c08249b	0.008309509
172	0xbd3fb7b7	-0.046806064
173	0x3c327b71	0.010893689
174	0xbd1903e1	-0.037357215
175	0xbd386fdc	-0.045028552
176	0x3cbaaea1	0.022788348
177	0x3c5cc69e	0.013475088
178	0xbd011da3	-0.031522404
179	0x3d1898de	0.03725516
180	0xbc2941b0	-0.0103306025
181	0xbb5ff1d7	-0.0034171247
182	0xbbce8d54	-0.0063034687
183	0xbd0e0910	-0.03467661
184	0x3d0bd4ed	0.03413861
185	0xbc62c14a	-0.013840029
186	0xbcfe5e34	-0.031050779
187	0x3bb5050b	0.005524283
188	0xbcefc99b	-0.029270938
189	0xbc00b6e9	-0.007856109
190	0xbd0ac281	-0.0338769
191	0x3d01bf8c	0.031676814
192	0xbd05fb25	-0.032710213
193	0x3cb67702	0.022273544
194	0xbb3fa408	-0.0029242057
195	0xbc77353a	-0.015088374
196	0x3c38c845	0.011278217
197	0xbcf33a4b	-0.029690882
198	0xbce71b49	-0.028211253
199	0x3c8d8fc3	0.017280465
200	0x3cc763bd	0.024339551
201	0xbd0b435b	-0.033999782
202	0xba5cffb6	-0.0008430438
203	0xbc1436a3	-0.0090462295
204	0x3cf3f676	0.029780608
205	0x3c4052be	0.011738477
206	0xbc9dc914	-0.01926092
207	0x3b1c86a6	0.0023883968
208	0xbc9c88d1	-0.019108208
209	0xbc804ce2	-0.01566166
210	0xbbd258aa	-0.006419261
211	0x3bc8c35b	0.006126804
212	0x3c834c11	0.016027482
213	0x3d0ba9d4	0.034097508
214	0x3beec283	0.007286371
215	0x3cce57db	0.025188377
216	0xbd1c791f	-0.038201448
217	0xbd0a9f61	-0.0338434
218	0xbbc5aa40	-0.0060322583
219	0xbd145acb	-0.0362194
220	0xbc3385d7	-0.010957203
221	0x3b6c5d18	0.003606623
222	0x3d02d305	0.031939525
223	0xbc87886c	-0.016544543
224	0xbc99deb0	-0.018782943
225	0xbd00a354	-0.03140576
226	0xbb3d3fa1	-0.0028877037
227	0x3d2687ce	0.040656857
228	0x3b44862a	0.0029987195
229	0x3c7e2d64	0.015513752
230	0xbcee1b86	-0.029065859
231	0x3c1d3329	0.009594717
232	0xbd046cbf	-0.03233027
233	0x3cdf555f	0.027262388
234	0xbcc6b04b	-0.024253985
235	0xbb32a036	-0.0027256138
236	0xbcce0d35	-0.025152782
237	0x3d203b99	0.039119337
238	0xbca81b6b	-0.020520886
239	0x3cc3bef1	0.023894759
240	0xbcfdea4f	-0.030995516
241	0x3d0d0f72	0.034438558
242	0xbd007674	-0.031362966
243	0xbbe45b26	-0.0069688736
244	0x3ce10bf3	0.027471518
245	0x3bbb1d47	0.0057102772
246	0xbc152f12	-0.009105461
247	0xbb844728	-0.004036803
248	0x3b87dc40	0.004146129
249	0xbc8c4b4f	-0.017125754
250	0x3ce608c5	0.028080354
251	0xbcda3cde	-0.026640352
252	0x3c80d2ca	0.015725512
253	0xbb6b2652	-0.0035880995
254	0x3c69950d	0.014256728
255	0x3ced1fbb	0.028945794
