model/ckpt/learned_litho_model_pbl3d.pt (torch, 339554 bytes, 19 tensors)

model.thresh_approx.conv0.weight f4 [128, 1, 1, 1]
000000 c5 65 b1 3c ff fb f9 be 02 ef 15 3f af 0b e1 3e
       0.021654973 -0.4882507 0.5856782 0.43954226
000010 e3 54 b8 38 a3 9f 15 3f 73 71 0e 3f ef 1a a1 3e
       8.789615e-05 0.5844671 0.5564186 0.3146586
000020 07 1e ea 38 3c 01 ec 3c e3 a2 0d 3f b6 60 d8 3d
       0.000111635825 0.028809182 0.5532667 0.10565321
000030 0c c5 05 be ed 7d 52 bc 65 7b a1 be 4e a3 56 3e
       -0.13063449 -0.012847406 -0.31539455 0.20960733
000040 c2 04 bc be d4 50 f2 be 0c e1 ca bd 64 04 89 be
       -0.3672238 -0.47327292 -0.099062055 -0.26761162
000050 3b 84 4c 3f 98 4a 91 bd 6d b1 97 3d 35 dc 03 3f
       0.7988927 -0.07094306 0.07406888 0.51507884
000060 2e 63 55 be 0e 2b 38 3c 39 aa 1c bf e2 6e b1 bd
       -0.20838615 0.011240734 -0.6119724 -0.08663727
000070 70 81 ac 3d 76 9a c9 be f3 a2 e3 be 95 71 65 be
       0.08423126 -0.39375657 -0.44460258 -0.2240661
000080 5a f7 17 3e 78 a0 f7 bc e1 86 87 bd 47 83 f0 bb
       0.14840451 -0.030227885 -0.06617523 -0.007339868
000090 c2 b6 b3 3c 65 08 37 3d 1f 66 f7 b8 4e 90 d5 ba
       0.021937732 0.04468574 -0.00011796899 -0.0016293616
0000a0 a3 17 72 3e ea f8 00 be fc 77 0d 3f 3f 12 c2 3d
       0.23641829 -0.12594953 0.55261207 0.094761364
0000b0 15 f3 9b 3c 75 5b 37 3f 7f 87 f0 be ae 78 b8 3e
       0.019036809 0.7162393 -0.46978375 0.3602957
0000c0 2b d6 99 bd 37 3a 09 3e 18 22 8b b8 26 03 84 3e
       -0.075115524 0.13401113 -6.634387e-05 0.25783652
0000d0 dc c6 98 3b 3a 47 78 3a 71 a0 0b ba bc a1 4d 3e
       0.0046623778 0.0009471063 -0.0005326337 0.20081228
0000e0 16 90 9f 3e 30 16 1c bf 96 e4 90 3e 23 b5 4a 3f
       0.31164616 -0.60971355 0.28299397 0.7918264
0000f0 8d 79 38 bf be c2 35 ba b8 a9 31 3f 1d a3 20 3f
       -0.7206047 -0.0006933621 0.69399595 0.6274889
000100 0e 42 62 3e bc 19 a1 be fd 1a e6 3d bc b1 ca bd
       0.2209551 -0.31464946 0.11235616 -0.098971814
000110 73 8d dc be 0a 2e 07 bd 66 af ee 3d 5b dc 9c 3e
       -0.43076667 -0.03300289 0.11654548 0.30636868
000120 c5 d3 1d bf 62 bc d2 3d 24 4d c7 be 9f 39 1a bb
       -0.6165126 0.102898374 -0.3892604 -0.002353288
000130 38 f8 03 3f 3c 1d 04 be 80 cf 6f 3d b7 01 a0 be
       0.51550627 -0.12901777 0.058547497 -0.31251308
000140 b5 d2 09 bf 51 59 20 bf 8a 04 a8 3e 27 29 23 bf
       -0.5383714 -0.62636286 0.32815963 -0.6373467
000150 c9 bb d4 3c 72 86 b0 bd 0f 8b 3f bf b9 c9 d0 be
       0.02596845 -0.086193934 -0.7482156 -0.40778902
000160 00 b5 81 bb 94 62 02 bf 2a e3 df b9 f5 b5 7b be
       -0.0039583445 -0.5093167 -0.00042703125 -0.2458113
000170 3c d0 12 3f 10 d9 ef 3d 7d 99 a2 be 6d d3 67 bf
       0.5734899 0.11711323 -0.31757727 -0.90556985
000180 29 b4 ea bd e6 c2 cd bd c8 fe 94 bd 62 a1 bf be
       -0.11460144 -0.100469396 -0.07275158 -0.37427813
000190 1f d1 03 bf 40 b3 cf be 29 34 06 bf ac 28 0e bf
       -0.5149097 -0.40566444 -0.5242334 -0.5553081
0001a0 cd c2 1c bf 13 0b 58 3e 51 91 e1 3e 29 d9 68 3d
       -0.6123474 0.21097974 0.4405618 0.056847725
0001b0 29 f9 5a be 39 68 c4 3e fb 2b 33 3e ca 64 a3 be
       -0.2138411 0.38360766 0.17497246 -0.31912833
0001c0 67 c5 07 3f af e1 5d 3e ca 64 3a bf 2e 91 43 3d
       0.5303559 0.21668123 -0.7281004 0.047745876
0001d0 6a 94 2d 3e fe 01 de bd fb 2f 7f bb 13 e4 64 bd
       0.16951147 -0.10840224 -0.003893851 -0.05588157
0001e0 a2 ee dc b9 86 f7 0b 3f d7 29 7b 3e 3f dd d4 3e
       -0.00042139465 0.54674566 0.2452768 0.41575047
0001f0 0e ef 02 39 30 0c 5a bf 45 17 ed 3e f8 f9 d5 3e
       0.00012486821 -0.85174847 0.46306816 0.41792274

model.thresh_approx.conv0.bias f4 [128]
000000 fd fd 25 be 00 72 02 3f 2f b5 61 3f 0b 5d 47 bf
       -0.1621017 0.509552 0.8816709 -0.7787635
000010 e1 93 3f bb 51 76 08 3f 13 5a 1b bf 39 41 6c 3f
       -0.002923243 0.53305537 -0.6068432 0.9228702
000020 91 44 c9 ba 27 18 30 be a0 4b 37 bf 3f 0e 01 bf
       -0.0015355517 -0.17196713 -0.7159977 -0.5041236
000030 ab 99 f8 bd ad e1 21 3f 49 c2 de 3e 99 4b 59 be
       -0.12138685 0.6323498 0.43507603 -0.21220244
000040 59 42 2b 3f 7c 88 74 3f 89 38 cc bd a9 be 67 bf
       0.66898113 0.9552076 -0.09971721 -0.905253
000050 e2 41 42 bf 64 63 38 3f 23 34 c8 3e 80 b3 54 bf
       -0.7588178 0.7202666 0.39102277 -0.83086395
000060 ec 5d 7d 3e f4 e3 9a bd 62 52 a1 bc cc 8a 7a 3f
       0.2474286 -0.0756301 -0.019692603 0.9786804
000070 51 11 37 bf 94 dd 1e 3f 3c a4 3c 3f d4 ea 6e 3f
       -0.715108 0.6205685 0.736881 0.9332707
000080 ae f5 17 bf 23 27 21 bf ce bf 5b 3e 22 83 24 bc
       -0.5935925 -0.6295034 0.21459886 -0.01004103
000090 fd 62 ef 3e fd 94 8d be 21 85 1b ba ad 3f cf 3a
       0.4675521 -0.27652732 -0.00059326185 0.0015811824
0000a0 0f b3 4d bf 84 3c 83 3f e6 bf 4a be e8 c3 ba be
       -0.80351347 1.0252843 -0.19799766 -0.3647759
0000b0 59 38 04 3f c9 24 99 bf 7a 03 2e 3f e2 ca 6c bf
       0.5164848 -1.1964351 0.67974055 -0.92497075
0000c0 da 46 46 3f f2 be 1a bf ea 24 3e bb 23 d0 82 bf
       0.7745186 -0.6044761 -0.0029013702 -1.0219768
0000d0 4a 56 b7 3e 7b 28 36 bc 1c 57 93 ba 0f a5 1e bf
       0.3580802 -0.01111805 -0.001124117 -0.6197061
0000e0 22 85 9e be 32 39 09 3e 8c 72 82 bf 6a c1 31 bf
       -0.30960947 0.13400725 -1.0191207 -0.6943575
0000f0 a8 d7 2f 3f 49 f3 23 bb fc 2c 24 3f 64 f1 07 3e
       0.6868844 -0.0025016835 0.6413114 0.13275677
000100 2d 9c 46 3e 5a 12 92 3e ff 17 c3 be 7c 16 4d 3f
       0.19395514 0.28529626 -0.38104245 0.80112433
000110 be fa 47 3f b5 fc 44 3f 2f 7e e1 3e b1 f7 4e bf
       0.7811698 0.769481 0.44041583 -0.808467
000120 5e f6 61 bf c7 36 4c 3f ae 44 3f 3e 36 8a e3 3b
       -0.8826655 0.79771084 0.18678543 0.0069439663
000130 c7 e0 28 bf 20 88 1d 3e 43 c0 ab be 11 32 bc bb
       -0.65967983 0.15383959 -0.33545122 -0.005743273
000140 b0 48 17 bf b1 12 80 3f 7f b4 aa 3e aa 2e 3f 3f
       -0.5909529 1.0005704 0.33340833 0.7468058
000150 80 c4 28 be 1e 7f 80 3f 9a eb 78 3f 1b 8d 56 3f
       -0.16481209 1.0038793 0.972345 0.8380906
000160 6e 6c 86 3a 63 1f 15 3f 3a 17 91 ba 7f 52 86 3f
       0.0010255703 0.5825102 -0.0011069544 1.0493926
000170 52 8c fb be d2 c5 ef be 59 1b 0d be fb d3 82 3f
       -0.49130493 -0.46830612 -0.13779964 1.0220941
000180 8e 1d be 3e fd 15 86 3f 36 d4 04 3f 5b f4 13 bf
       0.37131923 1.047546 0.5188631 -0.5779473
000190 13 68 81 3f 57 12 24 3f cb af 86 3f cc be 22 3f
       1.0109886 0.64090484 1.0522398 0.6357238
0001a0 c8 5e 5c 3f 88 6a 7d bf a6 53 6e bf 40 4e 25 bf
       0.86082125 -0.9899068 -0.9309639 -0.64572525
0001b0 ac 84 1e 3f 2a 9d 33 bf 9a 71 18 bf 3a cd 94 3f
       0.6192119 -0.7016169 -0.5954834 1.162513
0001c0 f6 b5 83 bf dd fd 06 bf fc d2 c0 be c0 6e 98 be
       -1.0289905 -0.52731115 -0.37660968 -0.29771996
0001d0 39 aa 3b bf 11 ed e0 3e 07 8d 90 bb e1 8f 9e be
       -0.73306614 0.43930867 -0.004411343 -0.30969146
0001e0 88 8f 05 39 41 d6 99 3e fc 1d 28 bf 21 b9 8e bc
       0.00012737338 0.30046275 -0.6567075 -0.01742226
0001f0 fa 53 ef ba 80 f7 a8 3e 1d 3b 03 bf 28 f5 89 bf
       -0.001825928 0.33001328 -0.51262075 -1.0777941

model.thresh_approx.conv1.weight f4 [64, 128, 1, 1]
000000 a7 5e 9e 3d f8 f7 bb bc df 91 9e bb dd 7b 67 3c
       0.07732897 -0.02294539 -0.0048391665 0.014128652
000010 e8 82 8c 3d c8 51 03 bb 29 8f 84 3d e3 1f 76 3d
       0.06860906 -0.002003776 0.06472618 0.060089003
000020 cb a7 a3 bc f2 2f 88 ba 80 eb 26 ba ff 4b c9 bd
       -0.01997747 -0.0010390265 -0.00063674897 -0.09828948
000030 e8 1f 8b bd 6a 64 a2 bd b6 eb 0f 3d e8 84 ab bd
       -0.06793195 -0.07929309 0.0351369 -0.08374959
000040 4c 9f 79 bb e4 b9 af bc 47 b4 07 3d 65 38 58 bd
       -0.0038089333 -0.021450944 0.03313091 -0.052788157
000050 17 89 21 3a 7d 16 75 3c 38 54 d9 bc f6 c3 13 3d
       0.00061620906 0.014958975 -0.026529416 0.036075555
000060 07 88 91 bc c9 d5 15 bd b6 c8 bc 3d 6c 31 cb bc
       -0.017765058 -0.036580835 0.0921797 -0.02480384
000070 d8 f1 d6 3c a4 e8 a8 bd 73 db 66 bd 26 69 8a bc
       0.026238367 -0.08247498 -0.056361627 -0.016895842
000080 4f 3d 12 be de ee 27 bc 75 69 24 bd 85 c3 05 be
       -0.142812 -0.0102498215 -0.040139634 -0.13062866
000090 37 4a 4f 3d e1 7b 6a 3d c7 99 75 3d 81 30 9f 3b
       0.050607886 0.057247046 0.059961107 0.004858077
0000a0 bb 76 96 3d 2a 6e c7 3d 0f ed 8a bd 39 c5 92 bd
       0.07346865 0.09737809 -0.067834966 -0.071665235
0000b0 39 a5 0b 3d 12 84 65 bd 11 3d 15 bd b6 fa 14 3c
       0.034093115 -0.056034155 -0.03643519 0.009092977
0000c0 6f 04 8d bd 25 07 64 3d a7 bc cb bc 9e 9f 96 3d
       -0.06885611 0.055670876 -0.02487023 0.07354663
0000d0 28 a3 a6 bd 43 09 2e bd 37 f0 35 bd 4a 61 41 bb
       -0.08136588 -0.0424893 -0.04441854 -0.0029507452
0000e0 b1 d8 76 bc a2 44 b5 bc 38 6a 1b 3c e3 7c 5b 3d
       -0.015066312 -0.022127453 0.009485774 0.053585898
0000f0 16 93 4b bc ad c8 c8 bd 5e 9f 0b 3c 90 fb 95 3d
       -0.012425205 -0.09803901 0.008521883 0.07323372
000100 41 c6 36 3d bf 63 bc bc 82 93 95 3d 4c 8a 4e 3d
       0.044622663 -0.022996781 0.073035255 0.05042486
000110 a4 d2 91 3d 7c 8b a5 bd 61 c9 72 bc b3 3c 41 bd
       0.07120255 -0.08083245 -0.01481852 -0.047177028
000120 e3 7f 1d bd df 0a f9 bc fa f4 a2 bc 11 2a b9 3c
       -0.03845204 -0.030400692 -0.019892205 0.022603067
000130 61 ce c4 bc 0d 94 65 bb 6e d4 c7 3d bc 29 35 bc
       -0.02402419 -0.0035030872 0.097573146 -0.0110573135
000140 cd 21 05 3c 77 94 b7 3d b4 fc 9b bd f2 f5 0f 3c
       0.0081257345 0.08963864 -0.07616559 0.008786665
000150 c9 ba 9b bd 03 a2 5f bc 59 70 1c 3d a1 4b 32 bd
       -0.07603986 -0.013649466 0.03819308 -0.043529157
000160 ee c0 ca bc c0 84 80 bd c4 d9 c0 bc bc 73 2d bd
       -0.0247502 -0.0627532 -0.023541339 -0.0423467
000170 d9 bc 7f 3c bf 9b c6 bd 1f 56 20 bc 36 1f a2 3d
       0.01560899 -0.09697675 -0.009786158 0.07916109
000180 ae 34 da 3c 6f 9b b0 bc d6 34 71 3c a3 86 20 bb
       0.026636448 -0.021558492 0.01472207 -0.0024494312
000190 b8 d6 95 3d 6b 95 e0 bc ac 4b a7 3d 16 1f 0b bc
       0.07316345 -0.027414998 0.0816873 -0.008491298
0001a0 5c 20 83 bc 6a 43 27 3d e0 65 88 3d c1 1e ae 3d
       -0.016006641 0.040835775 0.06660056 0.085019596
0001b0 57 e4 01 bd 9e 60 a1 bd 1f 9d c4 bd 81 85 8c bd
       -0.031711902 -0.078797564 -0.09600281 -0.06861401
0001c0 17 a3 63 3d 6e e2 c7 bc 97 f6 c2 3d 03 2c e0 3b
       0.055575456 -0.024399962 0.095196895 0.006841184
0001d0 9c 48 10 bc 70 9c 09 be ed d4 20 bd be 2a 9a 3d
       -0.008806374 -0.13438582 -0.03926556 0.07527684
0001e0 17 90 13 bd 8a 24 0e bd 37 a3 90 3c d2 51 bb 3b
       -0.036026087 -0.034702815 0.017655952 0.005716541
0001f0 1a 7e 9a 3c 9b b1 21 bd 77 4c 0e bd 4d 1a 92 bd
       0.018858958 -0.03947602 -0.03474089 -0.07133923
000200 d3 c6 23 bb 67 7b 41 3c 61 07 3c 3b 35 19 05 bc
       -0.0024990335 0.011809207 0.0028690922 -0.008123686
000210 19 75 fd bc 3d 59 52 3c a0 6d 0d bd 33 c0 b0 bd
       -0.030939626 0.012838659 -0.034528375 -0.08630409
000220 ef 57 79 3d 8a 31 25 bc 09 a6 30 bd 21 7b 56 bc
       0.060874876 -0.010082612 -0.043127093 -0.01309088
000230 4b 9a 17 3d 46 ad ce 3d 8d dc 6b 3d 0c fd 85 3d
       0.03701238 0.10091643 0.05758338 0.065424055
000240 b0 63 8f bd 91 89 96 bd b5 fc 95 bb e3 87 de 3a
       -0.07001436 -0.073504575 -0.004577244 0.0016977753
000250 34 7a 95 bd 87 f2 5c bd ac 70 2a 3a 15 8a c5 bc
       -0.07298699 -0.05394223 0.0006501775 -0.024113694
000260 63 fc 25 3d be 32 68 3a a8 db 57 bd 5c 55 8a bd
       0.040523898 0.0008857659 -0.052699715 -0.06754562
000270 30 54 a5 bd 12 25 81 bd 5b cc a5 3d 10 a5 79 bd
       -0.08072698 -0.06305899 0.08095618 -0.06094843
000280 d7 2a 71 3d 0e e6 8a 3d d7 b9 23 bd a8 6c e4 bb
       0.058878746 0.06782161 -0.039972153 -0.0069709606
000290 d9 da db bc 00 e6 b4 3c a0 30 04 3c de c4 0b 3c
       -0.026837753 0.022082329 0.008068234 0.0085308235
0002a0 df 59 56 3d 49 7d 8f 3d 1c 8c 0d bd af ca a1 3c
       0.0523318 0.07006318 -0.034557447 0.019749967
0002b0 d6 68 77 bd 9d b7 e0 bc 78 c4 f3 bc 2a 10 95 bc
       -0.060402714 -0.027431304 -0.02975677 -0.018196184
0002c0 c8 0b 7a bc 3e 35 11 bd 18 cc 2c be 8a 69 fd 3c
       -0.015261598 -0.035451166 -0.1687473 0.030934114
0002d0 0e 7f 25 3c a0 e4 a4 bc b3 65 30 3d 8b 5e 71 3c
       0.010101093 -0.020128548 0.043065738 0.014732013
0002e0 45 17 b1 3c 20 29 4d 3c 5e 0d 58 3d a5 a4 37 b8
       0.021617541 0.012522012 0.052747123 -4.3783937e-05
0002f0 17 e3 54 3c a8 59 3f bd f1 ba cb 3b a0 40 9b 3d
       0.012993596 -0.046716362 0.0062173535 0.075806856
000300 b7 ca c1 3c c1 20 96 3d 2b 9e de bd 3e 64 9a 3c
       0.023656232 0.07330466 -0.10870012 0.018846627
000310 18 dc 89 bd 70 f3 91 bb a5 a4 c5 3c 6a 39 99 3d
       -0.06731433 -0.004454069 0.02412636 0.07481654
000320 47 2b 41 bd 95 4a 55 3d 1c fc 35 3d c4 dd 2f 3b
       -0.047160413 0.05207308 0.044429883 0.0026835063
000330 01 de 3f bd 35 58 54 3c 50 fe 58 bd 1a 61 4d bd
       -0.04684258 0.012960483 -0.052976906 -0.05014143
000340 ec 18 a6 3d 02 01 ae bd 42 72 15 bd e6 bb 96 3d
       0.08110222 -0.08496286 -0.036485918 0.073600575
000350 78 1a f5 bc d5 ea 8f 3a 40 d5 ef bc 1f 64 8f bd
       -0.029919848 0.001098002 -0.02927649 -0.070015185
000360 26 7e 01 3d 7b f5 75 bd c7 f8 95 3c 20 7c 0d bb
       0.031614445 -0.06004856 0.018307103 -0.0021588877
000370 c4 3d 93 bb 1c 95 a8 bc 5a 3e c6 3c d0 1a c6 bc
       -0.004493447 -0.020578913 0.024199653 -0.024182707
000380 6d c9 37 3d 42 a8 e2 3c 3a a3 86 bb cf e3 9d 3c
       0.04486983 0.027668122 -0.0041088136 0.019273667
000390 cc 6b 73 3c 1d 46 4f 3d ae b9 44 bd 27 85 f8 bc
       0.014857244 0.050603975 -0.04802864 -0.03033693
0003a0 5a bd 56 3d 89 f8 5f 3b 5d 51 b9 bd c6 a1 ac bd
       0.052426673 0.0034175238 -0.09048722 -0.08429293
0003b0 2c 1e 95 bd fb 71 98 3d aa c9 02 bd 6c 01 7c bd
       -0.072811455 0.07443615 -0.031930603 -0.061524794
0003c0 3d e4 9e 3c f1 81 12 bd f1 74 10 bd 00 e0 25 bd
       0.019395942 -0.035768453 -0.035267774 -0.040496826
0003d0 01 ce 3a 3d fa f5 56 3d df 5e 8c bc fc 2d b4 bd
       0.045606617 0.052480675 -0.017135082 -0.08797833
0003e0 01 cd 03 3c c6 1b a6 3c d1 17 02 3d 0d 27 99 bc
       0.008044482 0.020276915 0.031760994 -0.018695379
0003f0 1d 89 20 bc 14 fe 7e bd 10 1d a5 3d f3 ce 8a ba
       -0.009798315 -0.062254027 0.08062184 -0.001059024

model.thresh_approx.conv1.bias f4 [64]
000000 ec c9 92 3d fc 7d 5f 3d 71 b0 f0 3b 14 93 dc 3d
       0.0716742 0.054563507 0.007345252 0.107702404
000010 f4 dc 2f 3d c9 d4 b5 bd 95 11 8d 3c 17 c4 20 bc
       0.042935327 -0.08878476 0.017220298 -0.009812376
000020 bb f8 e2 3d 25 5b 2b 39 d1 d8 db 3a cf d1 8e bd
       0.11082598 0.00016341785 0.001677299 -0.069736116
000030 94 2f f3 3d d2 a6 78 3d 2b 16 e3 3d 21 1e ae 3b
       0.11874309 0.060705967 0.110882126 0.0053136502
000040 f5 07 4e bc db 8f 76 bd 8f 0b c5 3d 90 f4 bd 3c
       -0.012575139 -0.060195785 0.09621345 0.023187906
000050 49 5e 20 bd ec 4b 59 bd 08 a8 4c be 41 2a 42 bc
       -0.039152417 -0.05305092 -0.19985974 -0.011850894
000060 d0 f8 0e 3e 93 60 12 bd 88 9b 0c bd 79 1a 53 3d
       0.13962102 -0.03573663 -0.034328014 0.05153892
000070 af 18 b4 3d cc 52 42 bd 84 17 17 be 58 c9 d9 bc
       0.087937705 -0.047442243 -0.14755064 -0.026585266
000080 e0 b6 6c 3d 41 b3 ee bc b6 e0 a7 bc 24 1b 23 bc
       0.05779159 -0.02913821 -0.020492893 -0.009955201
000090 28 e2 8c bd 7c 85 b3 3c b3 95 98 3d a5 87 d2 3d
       -0.068790734 0.021914236 0.07450428 0.102797784
0000a0 70 5b 05 bd 7b a8 2a be 23 15 cf 3c 5c 3c 18 3d
       -0.032557905 -0.16665833 0.025278633 0.03716694
0000b0 05 13 10 be f1 b2 18 bc a7 3c 4a bd 5b 79 d8 3a
       -0.14069755 -0.009320007 -0.04937425 0.0016515659
0000c0 18 c9 4a bd 11 a3 11 bd 5b b0 43 bd c3 d0 d8 3c
       -0.049508184 -0.035555903 -0.047775608 0.026466733
0000d0 f2 d5 1f 3e ec 05 34 3e c8 f6 9e bd cb 86 be 3c
       0.15608957 0.17580384 -0.077619135 0.023257634
0000e0 0a ba fa bc 2d 7c 72 3c c1 26 f2 3c f0 26 27 bc
       -0.030606288 0.014800114 0.029559495 -0.0102021545
0000f0 43 23 9d bd 7d b2 bb 3d 37 ba ee 3b 98 56 a9 3d
       -0.07672741 0.09164903 0.007285382 0.082684696

model.thresh_approx.conv2.weight f4 [1, 64, 1, 1]
000000 03 33 4b b9 84 3f 35 39 3a 91 42 3c 51 9d 94 3b
       -0.00019378592 0.00017285167 0.011875445 0.004535355
000010 f0 e5 a5 ba 2b 87 04 bd 5f ea d2 3c 2c 17 51 b9
       -0.0012657028 -0.03235547 0.025746522 -0.00019940425
000020 6b 8b 4b 3d 9a a2 59 38 44 ff 71 37 41 bb 26 39
       0.049693506 5.1888266e-05 1.4424153e-05 0.00015900751
000030 59 76 03 3e d2 67 17 39 c7 e9 23 3d 3e e3 e2 39
       0.12838115 0.00014439158 0.04001787 0.00043275388
000040 0f ee a3 39 1b 36 9d b6 88 46 80 3d d2 dc d4 b9
       0.0003126715 -4.6852633e-06 0.06263453 -0.00040600315
000050 67 73 a9 39 5f 68 fd b9 68 93 88 bd 93 df f0 b7
       0.00032320173 -0.00048333683 -0.066687405 -2.871434e-05
000060 0e 5c 15 3b fa aa 22 ba 50 bd cc b7 d2 0c cf b7
       0.0022790465 -0.0006205287 -2.440685e-05 -2.4682293e-05
000070 90 9c 11 b7 14 5d b3 39 97 e2 bb bb 02 75 0f 39
       -8.679126e-06 0.0003421089 -0.0057337987 0.00013681132
000080 b6 5e aa 3c 7d 28 fa b8 0e d5 8d 3a fb 45 02 b9
       0.020797115 -0.000119284705 0.0010820942 -0.00012423836
000090 45 b4 55 b9 f2 10 51 39 13 45 0c 3a df 35 5d 3d
       -0.00020380419 0.00019938106 0.0005350869 0.054006454
0000a0 78 76 61 3a a3 c9 d6 bd 76 38 25 3a 5f 16 81 b8
       0.0008600722 -0.10487678 0.0006302664 -6.155366e-05
0000b0 cd 3b 9d bd 1c ab aa 3a 79 25 15 b9 9a 21 db 37
       -0.07677422 0.0013020965 -0.00014223707 2.6122481e-05
0000c0 e5 47 da 38 1c f8 50 3a 8f 27 2f ba db f3 35 3a
       0.000104084414 0.00079715415 -0.0006681615 0.00069409393
0000d0 e4 99 9d 3d 4e ad a5 3d cb c1 6c bd 5b 51 e5 b8
       0.07695368 0.08089696 -0.057802003 -0.000109347246
0000e0 75 6b e4 b9 9a 9d bb b7 f5 87 86 38 4f c3 6a 3a
       -0.0004356761 -2.2365526e-05 6.414942e-05 0.0008955495
0000f0 f6 ed 49 bd 17 d9 b7 3d 6a 4d 3b 39 28 d4 1d 38
       -0.049299203 0.089769535 0.00017862549 3.7629303e-05

model.shrink_approx.conv0.weight f4 [128, 1, 1, 1]
000000 9e 91 bd bd 51 54 30 3e f5 6c d5 be d8 ce 06 bf
       -0.0925629 0.17219664 -0.4168469 -0.5265937
000010 6a bf 31 be 77 46 28 39 53 4d 4a bc 10 52 93 b8
       -0.17358175 0.00016047979 -0.012347537 -7.0247916e-05
000020 14 4c 20 bf 5b ad 88 3a f5 e1 73 ba b1 3e 09 bf
       -0.62616086 0.001042764 -0.00093033846 -0.53611284
000030 38 42 8b b9 37 8f 49 be 4d 6b be 37 b3 a0 57 bf
       -0.00026561483 -0.19683538 2.269973e-05 -0.8422958
000040 32 28 86 3e c6 57 e6 3e 6f 77 1b bf a2 b8 70 3e
       0.26202542 0.4498884 -0.60729116 0.23507932
000050 b1 3c 32 3f ee e4 74 be 93 9f 9f 3a 3b 05 29 be
       0.6962386 -0.23915455 0.0012178294 -0.16505902
000060 16 70 fb be c8 52 f3 3e 31 6a 49 bf cd 02 10 3f
       -0.49108952 0.47524095 -0.7867766 0.56254274
000070 b0 4c b6 bb ff 48 d6 be 6d 7a f1 b9 c9 33 73 ba
       -0.005563341 -0.41852567 -0.00046058316 -0.0009277431
000080 3c 50 82 b9 35 1e d0 bc 66 1e 0b 3a 8d b4 6e 3e
       -0.00024855311 -0.025405029 0.0005306959 0.23311062
000090 1f c2 2b 3f 4a 36 9a ba cd 1a d8 3e cd 84 07 3f
       0.6709308 -0.0011765447 0.42207947 0.5293701
0000a0 ea 6f 3c 3f 6d 90 41 bf 02 96 04 bf ad 57 09 3f
       0.7360827 -0.75611 -0.51791394 0.5364941
0000b0 19 20 2d 3e 89 35 0c 3e f4 fd b4 3e 15 be 1f bf
       0.16906776 0.13692297 0.3535 -0.6239942
0000c0 07 32 a6 3e 76 04 a0 3e 8d 77 cf bb d1 f9 15 b7
       0.32460043 0.31253403 -0.0063313902 -8.939257e-06
0000d0 68 19 56 ba 1e 06 48 bf 2c e7 00 3f 25 fc e6 39
       -0.0008167238 -0.78134334 0.5035274 0.0004405688
0000e0 b6 46 a8 3e 41 5a 83 b8 04 e1 8a 3a 42 53 19 3f
       0.32866448 -6.263378e-05 0.0010595624 0.59892666
0000f0 d0 1f 7a be a0 22 c4 3e 8b 8f 2d bd 79 7c 10 3f
       -0.24426198 0.38307667 -0.04237322 0.5643993
000100 7f 59 cc 3e 41 e1 93 be 58 f7 a5 3e 22 c4 8d 3e
       0.3991203 -0.28882793 0.3241527 0.276887
000110 cd 40 d8 be 02 71 86 b9 1a e9 f4 b9 bf 3a 58 bf
       -0.4223694 -0.0002564267 -0.0004671298 -0.8446464
000120 9e 4b 46 3a aa 2b 02 bf a6 f2 a9 39 7f 7e 8b 39
       0.00075643684 -0.50847876 0.0003241498 0.00026606393
000130 d4 1a 07 3f c6 9f 5a 3f 6f 62 8f ba 45 b2 95 ba
       0.5277531 0.85400045 -0.001093937 -0.0011420926
000140 16 6e 1b 3f dd 85 21 3f fe 48 8f ba 36 ab 05 bf
       0.6071485 0.63094884 -0.0010931788 -0.5221437
000150 8f 31 0b 3f e9 46 28 be 2e b0 bf 3e df 42 80 3e
       0.54372495 -0.164333 0.37439102 0.2505102
000160 0a e4 47 bf 54 d0 af 3e df 48 40 3f 83 9f 31 3e
       -0.78082335 0.3433863 0.7511119 0.17346005
000170 1e 9d d2 3d 0b 62 fb be e8 9a 2e bf 3c fe 96 ba
       0.10283874 -0.49098238 -0.6820512 -0.001151986
000180 f5 fb 45 bf e5 d8 af be 9d 3c 49 39 99 78 52 bf
       -0.7733758 -0.34345165 0.00019191434 -0.8221527
000190 7e 5a b2 39 67 60 4d 3e 18 ad 32 3a cb 77 6e b9
       0.00034018228 0.20056306 0.0006815954 -0.00022742075
0001a0 8d 39 3d be 13 ec 6a ba 52 f2 e0 bd 60 64 06 3f
       -0.18478985 -0.00089615694 -0.10983719 0.5249691
0001b0 46 53 ab 3e 78 6c 47 bf 0c 47 5d bf fe b1 29 bf
       0.3346197 -0.77899885 -0.86436534 -0.6628722
0001c0 85 b8 00 bf 35 7e 1c 3f 4f 51 c5 38 b7 aa 8d 3a
       -0.50281554 0.61130077 9.408837e-05 0.0010808323
0001d0 41 a7 01 3f 0d 6c 96 3e 92 08 5f 3a 0a af 91 3d
       0.50645834 0.2937931 0.0008508052 0.07113464
0001e0 15 36 4a bf c7 9c 2e bf 3c 5c 39 3f 1f b5 c0 be
       -0.7898877 -0.68207973 0.72406363 -0.37638184
0001f0 07 f3 25 3a 0f 73 11 3f 5f 59 6b 3e bb 22 25 bf
       0.00063304644 0.5681619 0.22983311 -0.6450612

model.shrink_approx.conv0.bias f4 [128]
000000 24 b1 22 be 9d 46 48 be fe 21 f7 3d bc 49 db 3e
       -0.15887886 -0.19558187 0.1206703 0.42829692
000010 7f 92 89 be af 53 f3 ba ff 7a 58 3f 90 07 db ba
       -0.2686958 -0.0018564368 0.8456268 -0.0016710628
000020 3c 69 70 3e 16 fe 07 b6 be 06 ff ba eb 7b dd 3e
       0.23477644 -2.0264465e-06 -0.0019456965 0.43258604
000030 48 cc f4 ba 07 4f b3 3d a6 ee 01 bb 81 c2 3b bf
       -0.0018676603 0.08755308 -0.0019826083 -0.73343664
000040 0f 67 ad be 9e 9c af be 4c 05 18 3f 88 2a a6 be
       -0.3386769 -0.34299177 0.5938308 -0.32454324
000050 a0 78 06 bf aa 8f b9 3d d3 52 a1 ba c7 f3 ed be
       -0.5252781 0.09060605 -0.0012308009 -0.4647505
000060 5b a3 44 3f 90 54 00 bf e1 94 d9 3e 2f b2 17 bf
       0.7681176 -0.5012903 0.42496398 -0.5925626
000070 67 4b 26 bc dc 3c bb 3e d1 52 87 ba 57 38 6c bb
       -0.010149813 0.3656987 -0.0010324364 -0.0036044323
000080 24 36 c8 ba 70 ab 8b be 10 d2 bb ba 28 ba 36 3f
       -0.0015274924 -0.27279234 -0.0014329571 0.713778
000090 a4 ae 34 bf cb a0 11 bb b5 f1 0b bf 8f 83 0e bf
       -0.7057898 -0.0022221084 -0.5466569 -0.5566949
0000a0 3d 1f 0a 3f 5a 2a 60 3e b9 e6 f9 3d 7b 4e 7e 3e
       0.53953916 0.21891156 0.1220221 0.24834625
0000b0 a7 06 30 bf ac b0 17 3f 1d cb 5b 3d a3 bc 6f 3e
       -0.6876015 0.59253955 0.0536605 0.23411803
0000c0 1c b3 bd bd 46 d0 22 bf ea 11 52 bc 4a 8c 2c bb
       -0.09262678 -0.6359905 -0.012821654 -0.0026328736
0000d0 d4 09 48 bb 71 6d 25 3f 5b 40 8f 3e 0f 54 9d ba
       -0.0030523436 0.6462012 0.27978787 -0.0012003201
0000e0 a6 05 6b be 9c 4f 9a ba 4b 81 dd ba 0d 0e 89 3e
       -0.22951373 -0.0011772993 -0.0016899494 0.26768532
0000f0 bc 75 03 3e 37 5a 07 bf 6a 79 96 3c dd 01 3b bf
       0.12837881 -0.5287203 0.018368442 -0.7304972
000100 d2 0a d7 be a9 64 20 3e 93 90 29 bf a6 ba f0 3e
       -0.42000443 0.15663399 -0.6623623 0.470174
000110 fd 94 17 3c a3 a6 0e bb 3c 8e 22 bb 14 59 f0 be
       0.00925183 -0.0021766804 -0.0024804017 -0.4694296
000120 d5 c5 a2 ba 9c 9d 34 bf 70 ae 92 ba 25 32 b3 ba
       -0.0012418578 -0.7055299 -0.0011190902 -0.001367156
000130 d5 b4 12 3f ba ec b3 3e 78 ab 40 bb dc 90 83 bb
       0.5730718 0.35141546 -0.0029399078 -0.0040150713
000140 ca 3b 49 bf 46 78 31 3f 81 6c 97 bb 1c 82 62 3f
       -0.78606856 0.6932415 -0.004621089 0.8847978
000150 24 2a 55 bf 69 ec 2e bf 81 87 ee be ee 12 3a bf
       -0.83267426 -0.68329483 -0.46587756 -0.72685134
000160 3a b0 66 3e f5 ac f2 be 9c b6 11 3f 32 21 c6 3e
       0.22528163 -0.4739758 0.56919265 0.386972
000170 00 40 5d be 7d 0d 05 bf 9a 25 bd 3e 40 fb 61 bb
       -0.21606445 -0.51973706 0.3694275 -0.0034482032
000180 d0 c7 41 3f 77 31 cc 3d 4f 57 cb ba ed d6 b8 bd
       0.75695515 0.09970372 -0.0015513691 -0.09025369
000190 18 be a8 ba 22 1c c2 3a f9 8d 99 ba 98 0c 9a ba
       -0.0012874035 0.001480941 -0.0011715285 -0.0011753021
0001a0 fe 0a ef be 3d 0e 20 bb bb 6e b5 3e 27 27 98 3e
       -0.46688074 -0.002442255 0.35436043 0.2971737
0001b0 88 72 b4 be c5 35 67 3e 4a 2f ef 3e 60 c0 19 3f
       -0.3524363 0.22579105 0.46715766 0.60059166
0001c0 af 11 69 3e 4b d3 24 bf 37 6c 02 bb 93 49 e4 ba
       0.22760652 -0.6438491 -0.0019900927 -0.0017416946
0001d0 f3 e7 27 bf 5d 7c 9d 3e 77 6e 74 ba b2 66 2c bf
       -0.655883 0.30758944 -0.0009324322 -0.673442
0001e0 a8 37 28 bf 94 cc 21 3e ba 09 43 bf 12 be 4c 3e
       -0.65709925 0.15800697 -0.76186717 0.19994381
0001f0 c9 4b 9b ba 70 0f 86 bd 4c 51 7b be 20 8c b6 3e
       -0.0011848147 -0.06545913 -0.24542731 0.35653782

model.shrink_approx.conv1.weight f4 [64, 128, 1, 1]
000000 3d 1f 29 bc a0 92 e6 3c 51 26 08 bd 95 bf ae 3c
       -0.010322389 0.028146088 -0.033239666 0.021331588
000010 bc 64 0b 3d 40 8b 7b 3c 92 4e b6 bc 13 68 0a 3d
       0.034031615 0.015353024 -0.022254262 0.03379066
000020 10 a9 09 bd 02 b8 a1 3c 19 02 93 bd af 7b 99 bc
       -0.033608496 0.019741062 -0.071781345 -0.018735735
000030 86 45 39 bd 8e 3d 9a bc 71 13 f8 3b ae 8e 50 3d
       -0.04523232 -0.01882818 0.007570677 0.05091732
000040 aa 05 47 bd 9f 5f 18 3d aa 6f 35 bc 71 7a 86 bd
       -0.048589386 0.037200566 -0.011073986 -0.065663226
000050 ec c3 9a bc e2 d8 33 bd 22 03 95 bc 5c d7 a2 bd
       -0.018892251 -0.043908007 -0.01818997 -0.07951233
000060 43 34 ca 3b 6f 6a c5 bc 01 a5 fb b7 45 b9 43 bc
       0.006170781 -0.024098603 -2.9998368e-05 -0.011946027
000070 97 dd 3f bd 3e 4b fb bc 51 41 1f bd 90 57 0b 3d
       -0.046842184 -0.030675527 -0.03888065 0.034019053
000080 c8 f3 e6 3b 65 20 0a bd d7 bc fb bc c2 e5 19 bd
       0.007048104 -0.0337223 -0.030729694 -0.03757263
000090 71 3d 11 3c 6f ce 2a 3c c5 d8 4e bd 34 fc b4 bc
       0.008864746 0.010425194 -0.050499696 -0.022092916
0000a0 a3 21 7a 3d 12 7d 73 bd 07 e8 dd bc 1c 11 64 3c
       0.061067235 -0.05944545 -0.027088178 0.013920095
0000b0 02 ce 8e bd f2 a7 81 bd 19 55 2d 3d c9 d9 00 bc
       -0.069728866 -0.06330861 0.042317484 -0.007864424
0000c0 22 0c 1e 3d a7 15 3d bc 8b 77 83 3c f4 f2 f3 bc
       0.03858579 -0.011540807 0.016048213 -0.029778935
0000d0 4f 30 bc bc 25 ec 8a 3d c3 ad 92 3d 6a bd eb 3c
       -0.022972254 0.06783322 0.07162049 0.028776843
0000e0 c7 65 17 3d d6 5b e7 bc 11 f5 97 3c 55 9e a5 bd
       0.036962297 -0.028242033 0.018549474 -0.0808684
0000f0 c2 79 81 3b ed f9 a1 bd 08 7a af 3c eb b2 5f 3d
       0.0039512822 -0.07908998 0.021420494 0.05461399
000100 5e 48 b6 ba ff 2a b8 bb ed a3 6c bd e4 21 b5 3c
       -0.0013907065 -0.00562036 -0.05777352 0.022110887
000110 f7 12 d4 bb bb 8c f9 bc cf 71 d1 3c 92 aa 8c bd
       -0.0064719873 -0.030462613 0.025566963 -0.06868471
000120 a4 1e 58 bc f6 2b 74 bc ca be 27 3d 1f 95 d6 bc
       -0.013190899 -0.014903059 0.040953435 -0.026194153
000130 26 2c 9a 3d 76 17 8e bd 21 81 b3 3c a3 1a 9d bc
       0.07527952 -0.069380686 0.02191216 -0.01917774
000140 7e 47 a3 bd 23 b6 a2 bc ff 55 9f bc 50 da d8 3d
       -0.079726204 -0.01986224 -0.019450186 0.10588515
000150 4e 81 50 bd de 2a 02 bd e1 c4 90 3d ad 37 45 3c
       -0.050904565 -0.031779163 0.07068802 0.0120372
000160 1c 8c 43 bd 6c 7e ad bc b6 04 63 bd d1 3f 55 bc
       -0.04774104 -0.021178447 -0.055424415 -0.013015703
000170 f2 e2 a6 bd b7 f5 3d 3d ab 3e 2b ba 7a 74 25 3d
       -0.08148755 0.04637691 -0.00065324706 0.040394284
000180 8f 52 2f 3d 43 66 f7 3c 97 9f 15 bc 16 48 62 bc
       0.042803343 0.03020013 -0.009132287 -0.013811132
000190 fc 60 da bb 77 c4 9a bc ed 21 e9 3a dc 7d d3 3c
       -0.0066643935 -0.01889251 0.00177866 0.02581685
0001a0 53 ed 0a bd be 70 19 3c 06 b4 85 bd 17 0c 6b 3d
       -0.033917736 0.009365259 -0.06528477 0.057384577
0001b0 37 80 f2 3c 55 22 88 3d d3 44 50 3c b3 e3 cd bd
       0.029602153 0.06647173 0.0127117215 -0.10053196
0001c0 a1 53 82 3d 94 8c 0d 3d 8b 28 8b 3c 1e 57 6b bc
       0.06363607 0.034557894 0.016987106 -0.014364032
0001d0 aa 25 fc 3b c9 11 b6 bc e1 aa 65 bc 4b 05 83 3c
       0.0076949196 -0.022225277 -0.0140177915 0.015993735
0001e0 c4 74 82 bd dc c5 8c 3a a4 1e ac 3d ad 2c 7a bd
       -0.063699275 0.0010740119 0.08404282 -0.061077762
0001f0 70 11 8a bc e4 dc 48 3b 5f ef 4e bd eb 83 2c bd
       -0.016854018 0.003064924 -0.05052125 -0.042117994
000200 80 17 09 bd fd 12 4c 3c 71 0f a2 bc 88 65 8a bd
       -0.033469677 0.012455699 -0.019782754 -0.06757647
000210 1d dd 74 bd 9e c1 26 bd 1b 49 96 bd dd 57 84 bb
       -0.059781183 -0.04071199 -0.073381625 -0.0040387944
000220 f1 48 96 bc a0 f1 a1 3b f2 3d e5 3c 0e 4b cd bb
       -0.018345328 0.004942134 0.02798364 -0.0062650507
000230 10 7a 81 3d 88 ff 9f bc df d0 0d 3b 93 bc ad 3c
       0.0632211 -0.019531026 0.002163939 0.021208083
000240 66 f7 13 bd 6a 28 7b bd a0 5d 91 bb 97 fa 2e 3d
       -0.03612461 -0.06131784 -0.00443621 0.04271945
000250 35 06 5a 3d e0 f9 7f bb f4 38 6f 3c 76 c6 48 3d
       0.053228576 -0.003905885 0.014600981 0.049017392
000260 f9 46 97 bd 77 34 8e 3c 4a 92 fd 3c 07 9b 13 3c
       -0.07386584 0.017359002 0.030953545 0.009009129
000270 e5 e8 60 bc b4 47 44 3d d9 58 59 3d 34 79 11 bd
       -0.013727401 0.047919944 0.053063247 -0.03551598
000280 c2 7c 0d 3d fc 50 73 3d c3 71 ad bb da 63 ae 3c
       0.034542806 0.059403405 -0.0052931025 0.021287847
000290 56 bb 8b bd ed 4a 9d bb 5b db e5 bd 13 d3 61 3d
       -0.06822841 -0.0048001916 -0.11223479 0.055132937
0002a0 a0 df 03 bc b4 d2 b1 bd 96 ce f1 3c 93 d9 04 bd
       -0.008048922 -0.086827666 0.029517453 -0.032434057
0002b0 3a 46 63 bd 73 9f ff bc 96 4a 55 bd a7 4a 9e bd
       -0.055486895 -0.031203961 -0.052073084 -0.077290826
0002c0 95 7d 92 3d 63 c5 90 3d 24 7e d5 39 7d 4e 77 3c
       0.07152859 0.070688985 0.00040720508 0.015094397
0002d0 d3 e6 21 bd 39 8f b3 3d 64 0e 15 bd d4 2f b4 3c
       -0.03952677 0.08767552 -0.036390677 0.021995462
0002e0 85 5d 93 bd 6b 35 ca 3b 94 3d 2b 3c be 9e 1f 3c
       -0.07195572 0.0061709187 0.010451693 0.009742437
0002f0 2e b3 a3 3d 9e 6b db 3c 0b b1 56 bd 1d 91 ce bb
       0.0799316 0.026784714 -0.052414935 -0.00630392
000300 21 56 16 bb a8 90 85 bd 0f 5f bb 3c d6 05 1f 3d
       -0.002293952 -0.065217316 0.022872476 0.038823925
000310 47 90 25 38 d5 a9 bd 3c 8d ee 09 3d 48 c3 b9 bd
       3.9473434e-05 0.023152271 0.033674765 -0.0907045
000320 05 a6 2a 3d 3c d9 c3 bc 91 ca d0 3c 2d 08 05 3d
       0.041662235 -0.023907296 0.025487216 0.0324785
000330 c8 33 ff 3c de b8 07 3d ec 43 ec 3b 0b 5e 15 bd
       0.03115262 0.033135287 0.0072102454 -0.03646664
000340 62 5e 12 3d 1c 37 a3 bd c7 98 22 3d 98 a4 ad 3d
       0.03573454 -0.07969496 0.03969648 0.084786594
000350 73 e5 c9 3c 7f 63 84 bc 27 e5 98 3c 05 e6 f8 3b
       0.024645543 -0.016160725 0.018663956 0.00759578
000360 7c 34 70 bd e0 a4 06 bd d3 6e 4e bc 48 8d 9a 3d
       -0.058643803 -0.03287208 -0.012599665 0.075464785
000370 59 6f a5 3d e6 cc f7 3c 5b 35 07 3d 19 c2 50 bd
       0.080778785 0.03024907 0.033009868 -0.050966356
000380 db f2 dd 3d 3c 72 a7 3d 6d 9a 01 bd 6a a0 70 3d
       0.10837337 0.08176085 -0.031641413 0.058746733
000390 8b 9a 08 bd 80 46 db 3b b5 ef 3b bd ac a8 f4 3a
       -0.03335051 0.006691754 -0.0458829 0.0018665991
0003a0 09 62 2a bd d5 32 aa bd d7 e4 4d bc 85 e1 9f 3d
       -0.0415974 -0.08310477 -0.012566767 0.07806686
0003b0 20 2e 6d 3c e3 e0 8b 3d b0 01 ff bc 17 85 17 bd
       0.014476329 0.06830003 -0.031128734 -0.03699216
0003c0 18 49 1a 3c bf 35 12 3d 6d cf b7 3c 85 a1 0d bd
       0.009416841 0.035695788 0.022437776 -0.034577865
0003d0 7b b8 dd bd 11 02 5e 3d 52 af f7 3c c8 fa 94 3d
       -0.108262025 0.05420119 0.030234966 0.07274395
0003e0 28 8c 79 3c 40 3a 7a 3d cd a6 58 bc ef 67 86 bc
       0.01523117 0.061090708 -0.013223362 -0.016406981
0003f0 2c 08 2f 3d cf 7a 70 3d fd 71 86 3d 3e 51 7c bd
       0.042732403 0.05871087 0.0656471 -0.061600916

model.shrink_approx.conv1.bias f4 [64]
000000 af 7b 37 bd 34 39 1d bd 7d 38 65 3d 2d ae 88 bd
       -0.04479569 -0.03838463 0.055962075 -0.066738464
000010 76 ce 21 3d 3d d1 8a bd f4 3b 75 3d 5c 67 49 3d
       0.039503537 -0.0677819 0.05987163 0.049170837
000020 ab 90 9a 3d cd ab 43 3d f8 44 62 bd e0 60 0f bd
       0.075471245 0.047771264 -0.055241555 -0.035004497
000030 c0 84 0f 3b 72 8c af bc 1b d4 2c bd 1a 47 14 3d
       0.0021899194 -0.021429274 -0.042194467 0.03620062
000040 1d 5f bf bc 55 b4 0e bd cb 89 6e 3c 33 d2 ab 3d
       -0.023360783 -0.034839947 0.01455922 0.08389702
000050 2f a4 8a 3d 18 44 9c 3d e2 ff 95 bd cb 1c 9f 3d
       0.06769597 0.07630175 -0.073241964 0.07769164
000060 8d 9c df 3c 58 b4 bf 3c e4 b1 a9 bd ed 50 06 bd
       0.027296329 0.023401424 -0.08285883 -0.03279202
000070 28 de dc bc e3 c5 01 3d 1b 78 ec 3c 27 78 b5 3b
       -0.026961401 0.03168286 0.028865865 0.005538005
000080 0e bb 89 3d 22 46 e7 bc 55 83 42 bc 0c b2 02 3d
       0.06725131 -0.028231684 -0.011872132 0.03190808
000090 b3 da 55 bd 9f 03 a3 3d 85 46 1b bd 49 34 21 3d
       -0.05221052 0.07959675 -0.03790905 0.039356504
0000a0 e8 2f 1f bd 22 4a 55 3d 4b a1 a4 3c d4 97 45 bc
       -0.038864046 0.05207265 0.020096442 -0.012060124
0000b0 72 53 4d bd 32 97 52 3d 3f 0c 4b 3d 47 73 f4 3c
       -0.050128408 0.051413722 0.049572226 0.029840125
0000c0 8a 78 37 bd d7 68 f2 3c 80 82 4b bd a8 e1 09 ba
       -0.04479269 0.029591007 -0.049685 -0.00052597607
0000d0 52 1e 91 3d 91 2c 90 3c 37 5e 0a 3c d4 6d 17 3d
       0.07085861 0.017599376 0.008445314 0.036969975
0000e0 46 3a 95 3d a5 b5 9e 3d 74 6f a7 3d 9a e0 88 bb
       0.072865054 0.0774949 0.08175555 -0.004177165
0000f0 f1 3a 3f bc 4c 70 ab 3c 15 ea 1e 3d aa c4 a5 3d
       -0.011671768 0.02092757 0.038797457 0.08094151

model.shrink_approx.conv2.weight f4 [1, 64, 1, 1]
000000 b9 a9 f7 38 b7 f7 8e b9 30 5a 9d b9 e7 3c b8 b9
       0.00011809491 -0.00027268913 -0.00030012568 -0.0003514059
000010 e7 8d 8e 3d 05 f1 c4 38 72 02 c2 b7 cd e1 35 39
       0.069606595 9.390902e-05 -2.312774e-05 0.00017345622
000020 08 0e 1b b9 e7 b6 11 38 83 aa 6b 3a cc a8 78 3a
       -0.00014787179 3.4741035e-05 0.0008989947 0.0009485602
000030 94 88 2a 3a 51 67 3a 3a 87 18 ac 37 08 b9 0b b9
       0.0006505337 0.0007110732 2.051542e-05 -0.00013325003
000040 d3 0c 22 b8 93 a0 c5 b4 8d e3 c4 b9 e9 36 33 b9
       -3.8635753e-05 -3.6810943e-07 -0.00037553572 -0.00017091226
000050 13 19 e7 b8 62 50 0a b9 64 82 40 b9 1e 73 e2 39
       -0.00011019609 -0.0001319065 -0.00018359121 0.00043191848
000060 85 f1 a6 3a d3 0e 43 39 46 14 9a 39 21 73 e7 b8
       0.0012736773 0.00018602172 0.00029388274 -0.00011036383
000070 3a 4a 87 b9 a8 d1 99 3a 1a 6b 6c 38 1b b7 5c 38
       -0.0002580451 0.0011735456 5.636653e-05 5.2622618e-05
000080 7e e5 9b 39 f6 72 f7 b8 95 15 ba 39 12 d9 04 b9
       0.0002973489 -0.00011799291 0.00035492764 -0.00012669366
000090 5f a3 25 39 92 5a de b8 17 7c e0 b9 f3 78 a6 39
       0.00015796487 -0.00010602655 -0.00042817064 0.00031752101
0000a0 3d 07 14 3b 89 32 70 3a d3 66 bd b8 61 8e 02 b8
       0.0022587322 0.0009162804 -9.031375e-05 -3.1127016e-05
0000b0 1e 9d 3b b9 2a f8 f3 b7 60 07 90 37 40 e8 fd 39
       -0.0001789224 -2.9083418e-05 1.7169572e-05 0.0004842896
0000c0 e6 c7 68 3a cb 6f 31 39 c3 60 61 38 8b 42 5d 3a
       0.0008879885 0.00016921682 5.3734297e-05 0.00084403966
0000d0 8e 38 35 3d 11 5d 06 3a 75 49 3a 3a 65 6f bb b9
       0.044243388 0.00051255623 0.0007106283 -0.00035750415
0000e0 ce d2 51 39 de 7b 06 37 48 ee 97 b9 c7 03 f4 b9
       0.00020010324 8.0158625e-06 -0.00028978498 -0.0004654212
0000f0 94 f1 cc b6 e3 13 8a b9 96 4c ce 38 6f 6e cf b9
       -6.107797e-06 -0.00026336228 9.837111e-05 -0.00039564396

model.out_layer.conv0.weight f4 [64, 1, 3, 3]
000000 7c c1 9a 3e ab 83 35 3e f1 2a 86 be 12 8c bc bd
       0.30225742 0.17726009 -0.26204637 -0.09206404
000010 a5 16 57 bd 57 87 29 3e a0 a0 7b be 66 ef 47 3d
       -0.05251183 0.16555534 -0.24572992 0.048812293
000020 0a dd a6 bd a4 01 cd 3c d4 e4 7d be 37 df 89 be
       -0.081476286 0.025025196 -0.24794322 -0.26928112
000030 a2 c5 74 3b a0 05 11 3e 05 95 d7 bd f4 61 65 bd
       0.0037349244 0.14162302 -0.1052647 -0.05600162
000040 50 14 61 3e 65 e2 91 be 0d 5a 98 3e b3 77 99 3e
       0.21980405 -0.28493038 0.29756203 0.29974136
000050 fa 9d 05 3f 9e a0 39 3e b4 0c f1 be 79 f3 bf bc
       0.5219418 0.18127677 -0.47080004 -0.023431526
000060 80 f2 b7 be 1f f9 0c bd c9 e7 d4 be 0d 78 3f 3e
       -0.359272 -0.034417268 -0.41583088 0.1869814
000070 83 cd 21 3e af fe 8b bd e2 3a 7b be ac ba 7f 3e
       0.15801053 -0.068356864 -0.24534181 0.24973553
000080 13 1a c9 3d 15 63 b2 be 60 34 d0 bd e5 7c 02 3d
       0.098194264 -0.3484122 -0.1016624 0.03185739
000090 a3 05 46 bc a4 9e 93 3d 3c 09 0b be ae 57 a5 be
       -0.012086305 0.07207993 -0.13577741 -0.32293457
0000a0 99 d9 ae 3d 9f 04 83 3e 58 da 0b be 9c ae 3d be
       0.08537597 0.25589463 -0.1365751 -0.1852364
0000b0 be 9a ae 3e 4a 44 a8 be 38 42 88 39 a5 a1 2e 3e
       0.34102434 -0.328646 0.00025989278 0.1705385
0000c0 f4 35 f0 3c 70 61 73 3c b7 d1 bd 3d f5 a2 fd bd
       0.029322602 0.014854774 0.092685156 -0.12384597
0000d0 a1 11 8a bb 6f ec 96 3e b8 55 b3 be f5 ab 9a be
       -0.0042135273 0.2947726 -0.35026336 -0.30209318
0000e0 a6 84 b6 3e 3b 17 e1 3e c2 5b 31 3e 25 e6 21 3c
       0.35648078 0.43963036 0.17320159 0.009881531
0000f0 15 5b d4 bd 60 16 0b 3e 54 cd c1 be b3 ad 8b be
       -0.10368935 0.13582754 -0.37851965 -0.2728096
000100 30 1a 94 3e 5d 2d 91 3e 15 a5 67 bd cb 1e 19 3e
       0.2892623 0.28354922 -0.05655392 0.14953153
000110 02 92 4f 3d 8c 4a c1 bc 3e b5 ac 3d 92 a8 03 bf
       0.050676353 -0.023595117 0.08433007 -0.5142909
000120 74 ad d7 bd 84 27 7f 3e 34 68 6e 3e cd 33 98 3d
       -0.105311304 0.24917418 0.23281938 0.07431755
000130 6c 4d 30 3e 37 9b ba be 36 30 33 be 60 87 25 be
       0.17217034 -0.36446545 -0.1749886 -0.16164923
000140 41 7f 45 3b 4c 0b 73 bd 24 ef 99 3e 35 7b 4b 3e
       0.0030135664 -0.059336945 0.30065262 0.19871219
000150 05 f9 3e 3e d5 45 80 bd 18 44 82 bd 01 07 33 3e
       0.18649681 -0.062633194 -0.06360644 0.1748314
000160 80 83 58 3d 4d 8d 9d 3d 95 fe 29 be f7 7e dd bd
       0.052859783 0.076929666 -0.16601022 -0.10815232
000170 05 1d c4 bd 3e 75 5b 3e 87 ba f6 bd 78 42 85 3c
       -0.095758475 0.21431443 -0.12047296 0.016267046
000180 71 ca 9c 3e bd 1c ab 3d 62 0e cf bd bb ea 92 3e
       0.306232 0.08355091 -0.10110165 0.2869471
000190 21 be a8 bd b8 41 0c be 9f 32 ab 3e fd e8 30 be
       -0.08239389 -0.13696945 0.33437058 -0.17276378
0001a0 d1 28 9c 3d 77 da 86 bd d1 67 57 bd 44 a5 8d be
       0.076249726 -0.065846376 -0.05258924 -0.2766515
0001b0 3f 35 bb bd 23 83 6a be e0 42 81 be 2b 5a 98 3e
       -0.09141015 -0.22901587 -0.25246334 0.29756293
0001c0 34 d8 0c be 2c 38 47 3e 3f dd 03 3b 22 ca 01 3e
       -0.1375435 0.19455022 0.0020120887 0.12674764
0001d0 7e d7 49 be a0 9a 7b be d9 a9 b4 bc 6f e9 2a 3d
       -0.1971111 -0.24570704 -0.022053646 0.041726526
0001e0 3c 42 ba bd 0d 54 95 bc 11 b3 8a be 73 18 22 be
       -0.090946645 -0.018228555 -0.27089742 -0.15829639
0001f0 a6 a8 d9 3d d0 14 04 3e e7 40 dd bd 0f df a3 3e
       0.1062787 0.12898564 -0.10803395 0.32006118
000200 d8 7d 96 bd 25 f7 8c 3d 65 f8 9a 3e 21 ff 74 be
       -0.073482215 0.068830766 0.30267635 -0.23925449
000210 fd 1c 4c 3e 9f d9 76 be 6d 4c a7 3d e7 df 52 bd
       0.19932933 -0.24106453 0.08168874 -0.05148306
000220 bb e9 c9 3d fc 9f 7c 3a ae ca f9 3d 91 51 4e be
       0.09859034 0.00096368766 0.12196861 -0.20148303
000230 14 20 bb 38 f4 37 52 3d 22 63 e0 bc 42 ae 81 be
       8.92283e-05 0.051322892 -0.02739102 -0.2532826
000240 f6 0c 80 3e 4b eb 0b be 24 da 81 be 3d 0f 4d 3e
       0.25009888 -0.13663976 -0.2536174 0.20025344
000250 1e 53 8a be f3 80 c2 3c cd ca fe bd ca 47 43 3e
       -0.27016538 0.023743128 -0.12441025 0.19070354
000260 f0 63 01 be 36 61 8d be 66 a9 9b 3c fe 51 40 3e
       -0.1263578 -0.2761323 0.019001674 0.18781278
000270 16 e6 1e be 27 61 23 3d e1 15 84 3d ed bd 9a be
       -0.15517458 0.039887574 0.064494856 -0.30223027
000280 99 b0 5c 3e 57 9b 66 3e 9e 10 84 be 04 e2 6d 3e
       0.21551742 0.22520195 -0.25793928 0.2323075
000290 f3 52 ba 3d 68 6a f2 bd f7 7e e1 3d 6f cc 4a be
       0.090978526 -0.11836702 0.11010545 -0.19804548
0002a0 f2 f3 4a 3d d9 df 0d be b5 17 21 3d 3f 8b bc 3e
       0.04954905 -0.13854922 0.03932925 0.36824986
0002b0 15 fc 3c bd 42 b1 91 be 30 cc 37 3e 17 ec 3c 3e
       -0.04613884 -0.2845555 0.17948985 0.18449436
0002c0 fb 93 4f be 3e 84 17 be f0 85 0d 3e 30 87 89 be
       -0.20271294 -0.1479654 0.13820624 -0.26860952
0002d0 b0 53 54 3e ca ed 52 be 68 c7 3e bd 60 18 85 be
       0.20735049 -0.20598522 -0.046576887 -0.2599516
0002e0 4c b4 b0 3e c9 a9 d7 bd af f4 b3 3e 8b c2 8b 3e
       0.34512556 -0.10530431 0.35147616 0.27296862
0002f0 a5 30 83 3e 4f ed 3a 3e 4f 0a 7c 3e 92 8c f8 3d
       0.2562305 0.18254589 0.24613307 0.12136187
000300 cd 61 f6 3d 06 70 0d 3e fd d9 0d be 6c 1a c6 be
       0.12030373 0.13812265 -0.13852687 -0.38692033
000310 86 7a 88 3d cc a9 ba be 9f 7c 4d 3e 6f f5 31 be
       0.066639945 -0.3645767 0.2006707 -0.17378782
000320 cd fc a9 3e a3 03 f1 3c 1b c5 03 3e 79 05 e9 bd
       0.33200684 0.02942068 0.12868159 -0.11377997
000330 33 0b 5d be 8d ac b0 be 3d 64 ac be 5c ce 65 be
       -0.21586303 -0.34506646 -0.33670226 -0.22442001
000340 6d 65 df 3d 64 4c cf 3b 0e b7 bb bd 47 15 90 be
       0.10908017 0.006326245 -0.09165774 -0.28141233
000350 ec 25 9c 3e 27 a1 35 3e 5a 47 a2 3e eb c0 fb bd
       0.30497682 0.17737256 0.31695062 -0.122926556
000360 64 77 44 be f6 5f 69 be 3e f1 20 be a0 8a 5b be
       -0.19186169 -0.22790512 -0.15717027 -0.214396
000370 df 1c 0f be f5 0d cf 3e 6a 16 ca bc 98 71 1e 3e
       -0.13975857 0.40440336 -0.024668891 0.1547302
000380 ce e7 c1 3e a1 d6 c5 3e 30 07 83 3e 91 b2 84 be
       0.37872165 0.3864031 0.2559142 -0.25917485
000390 33 26 98 3e 7e fb 88 be fb 07 ba 3d 19 c7 28 3e
       0.29716644 -0.26754373 0.090835534 0.164822
0003a0 cd a9 96 be 8f 4e b3 be b3 68 09 be c0 39 bd 3d
       -0.29426423 -0.35020873 -0.13418846 0.092395306
0003b0 24 d5 87 be a4 3c 22 3d f1 1b 20 bd 94 42 98 3e
       -0.265298 0.039608613 -0.039089147 0.29738295
0003c0 aa a6 a7 3d 6b 8a 65 be d1 cb 68 3e fb c5 0a be
       0.081860855 -0.22416084 0.22734 -0.13552086
0003d0 0a 5b 41 3e b9 a8 90 3c 65 0d 4c 3e 28 c8 68 be
       0.18882385 0.017658578 0.19926985 -0.22732604
0003e0 5c b8 da 3c 9b e1 f5 bc b4 5c b6 be 9e 92 1f 3e
       0.026699238 -0.030014804 -0.35617602 0.15583274
0003f0 55 05 4d 3e 54 1a 62 bd 15 92 55 3e bc 64 57 3e
       0.20021565 -0.05520089 0.20856507 0.21034521

model.out_layer.conv0.bias f4 [64]
000000 13 a2 0b bc 48 c0 6a be 41 ba 1b 3c 11 c2 9b bd
       -0.008522528 -0.22924912 0.009504856 -0.076053746
000010 cc ee e7 3c 1d 87 4a 3c 6c 41 69 3b 49 e6 f0 3c
       0.02831211 0.012361315 0.0035591973 0.029406684
000020 2f 0e ac bd 20 44 39 be 6d 24 8e be 67 5c bc bc
       -0.08401143 -0.18092394 -0.27762166 -0.02299328
000030 f2 b8 8f 3e bb 0a f2 3d 7a 99 71 3e 13 c1 14 be
       0.2807079 0.11818453 0.23593703 -0.14526777
000040 3c 1f 8a be f3 3c db bc 4e 68 82 be 68 a1 3c bd
       -0.26976955 -0.026762461 -0.25470203 -0.046052366
000050 5a 32 47 bd 0e b4 e3 bc 0a 9e ef bd 94 98 f2 3d
       -0.048632003 -0.027795818 -0.117000654 0.11845508
000060 58 e1 de ba c8 a7 97 bc c2 df 25 bb b7 91 52 be
       -0.0017004414 -0.018512622 -0.0025310372 -0.20563398
000070 6c de 5f be da ef e2 3b cc ef 25 3c 33 94 28 bb
       -0.21862191 0.006925565 0.010127973 -0.00257231
000080 04 ab 77 3b 9d ca cd bd c2 86 87 bc 65 ea 1d be
       0.0037791142 -0.10048411 -0.01654375 -0.15421446
000090 17 35 b5 3b 2c e8 88 be 44 85 53 bd 50 4f 4e bc
       0.0055300104 -0.26739633 -0.051640764 -0.012592152
0000a0 87 1e eb bc ca fb 94 3a 18 89 38 3d e4 a1 18 3c
       -0.02870108 0.0011366543 0.045052618 0.0093159415
0000b0 79 7a 8b 3d 5d 9b 40 3d 41 05 1c 3d d5 e6 77 be
       0.06810469 0.047023166 0.038090948 -0.24209149
0000c0 83 e4 35 3c 80 d3 e9 3b 52 e8 60 3d 35 7e 43 bd
       0.011101845 0.0071358085 0.054909058 -0.047727782
0000d0 82 5d 4e 3d 5e c3 cd bc 72 f6 dd 3b c0 45 70 bc
       0.050382145 -0.025117572 0.0067737633 -0.014665067
0000e0 c9 1b 01 3e d7 af 31 bc 17 f1 3b bc ee 06 42 bb
       0.12608255 -0.010845146 -0.0114710545 -0.0029606181
0000f0 35 4d 51 3e 18 29 75 3b 94 ae 84 3e 6a 42 87 bb
       0.20439608 0.0037408527 0.25914443 -0.00412779
